models/zoos/zoo_small_extra/model_22_4537.pth (torch, 2368 bytes, 3 tensors)

fc1.0.weight f4 [8, 2]
000000 fe 8f e8 be 53 37 b9 bf db c8 b3 3f 83 94 ce bf
       -0.45422357 -1.4470009 1.4045671 -1.6139072
000010 3d f9 9b 40 29 31 df bf 4f 6a 68 bf be 3c 80 3f
       4.8741746 -1.7436877 -0.90787214 1.0018537
000020 91 e4 df be 72 57 a8 bf d9 88 75 3f df 85 95 bf
       -0.4372907 -1.3151686 0.9591194 -1.1681479
000030 0c c8 cc 40 93 4e e3 bf 00 7a 09 3b 40 e0 8a 3c
       6.39942 -1.7758354 0.0020977259 0.016952634

fc1.0.bias f4 [8]
000000 d9 28 99 bf 53 d1 50 40 21 34 30 c0 92 11 d9 3f
       -1.1965591 3.2627761 -2.7531817 1.6958487
000010 55 50 8b bf 62 72 13 40 5e 0e 40 40 f0 c8 04 be
       -1.088389 2.3038564 3.000877 -0.12967277

fc2.weight f4 [1, 8]
000000 32 47 98 3f 23 3e 25 40 c2 fe a3 40 60 65 b7 bf
       1.1896727 2.5819175 5.1248484 -1.4327812
000010 79 b1 ba 3f 4d e5 e9 3f ad d8 54 c0 4a df 3c 3e
       1.458541 1.8273102 -3.3257248 0.18444553
