models/zoos/zoo_medium/model_225_6830.pth (torch, 3278 bytes, 5 tensors)

fc1.weight f4 [10, 2]
0	0x3e4383c0	0.19093227
1	0xbf46cd45	-0.77656966
2	0xbf43889f	-0.7638034
3	0x3fb69d1e	1.4266698
4	0xbf616ac0	-0.8805351
5	0xbdd31af3	-0.103078745
6	0xbfb31e80	-1.3993683
7	0x3fc2c25f	1.5215567
8	0x3f9ec1e2	1.2402918
9	0xbdfaa428	-0.122383416
10	0xc006d0a4	-2.1064844
11	0xbe856772	-0.26055485
12	0x3fff5a89	1.9949504
13	0xbfe0e86f	-1.7570933
14	0x401ccfa7	2.450174
15	0xbf740f04	-0.9533541
16	0xbfce2107	-1.6103829
17	0x3ef9b8c7	0.48773786
18	0xbd55e640	-0.052221537
19	0x3d813638	0.063091695

fc1.bias f4 [10]
0	0xbf19db51	-0.60100275
1	0xbf81c36a	-1.0137761
2	0x3f815dd6	1.0106761
3	0xbf95c1e4	-1.1699796
4	0x3f1e1f7e	0.61766803
5	0xbe445f16	-0.19176897
6	0xbfa44405	-1.2833258
7	0x3f807b07	1.0037545
8	0x3f983351	1.189066
9	0xbf18b970	-0.59657955

hidden_layers.0.weight f4 [10, 10]
0	0x3ee81883	0.453312
1	0xbf6cbd7e	-0.9247664
2	0x3ee40a8f	0.44539306
3	0xbfd68603	-1.6759647
4	0x3edb0963	0.427806
5	0x3eee75c5	0.46574226
6	0x3fddd301	1.7330018
7	0xbf47695f	-0.7789516
8	0x3f618bc0	0.88103867
9	0x3ea08a5b	0.31355557
10	0x3fdd8158	1.7305098
11	0xbfaee180	-1.3662567
12	0x3e63d98e	0.2225096
13	0xbfa2589e	-1.2683294
14	0x3db890f0	0.0901202
15	0x3eb48e3c	0.35264766
16	0x3ffb4a1b	1.963199
17	0xbf3400f9	-0.70313984
18	0x3f566da6	0.8376106
19	0x3e2325ea	0.15932432
20	0xbf099174	-0.5373757
21	0x3d2c669e	0.04209005
22	0xbec23a5e	-0.37935156
23	0x3dff7dec	0.124751896
24	0xbe33bc7a	-0.17552367
25	0xbe807ee7	-0.2509682
26	0xbe1d65e7	-0.15370904
27	0xbf0b085a	-0.5430962
28	0xbe0521b3	-0.13001136
29	0xbdb36358	-0.08759183
30	0xbd686eae	-0.056746177
31	0xbe490e7c	-0.19634432
32	0xbe0d29e0	-0.13785505
33	0x3dd3791c	0.10325834
34	0xbebf4f30	-0.37365103
35	0xbe7ad78c	-0.24496287
36	0xbd5b2bad	-0.05350845
37	0xbecfa673	-0.40556678
38	0xbea15111	-0.3150716
39	0x3e846e4b	0.25865397
40	0x3f05ed3f	0.52315134
41	0x3fdbd42f	1.7174128
42	0x3f742ba9	0.9537912
43	0x3ff40879	1.9065086
44	0x3f882ee6	1.0639312
45	0x3f2793bd	0.65459806
46	0xbfecf09a	-1.8510926
47	0x3fcdcac8	1.6077509
48	0xbe8ed57e	-0.27897257
49	0x3e1634e2	0.1466861
50	0x3eb4cf89	0.35314587
51	0xbf78c4b3	-0.9717514
52	0x3ec65bd0	0.38741922
53	0xbfea5536	-1.8307254
54	0x3e18f391	0.14936663
55	0x3f448b01	0.76774603
56	0x3ff66baf	1.9251612
57	0xbfa2066e	-1.2658212
58	0x3f0aeb01	0.5426484
59	0xbe349c76	-0.1763781
60	0xbde36562	-0.111033216
61	0xbe182e12	-0.14861324
62	0xbe324622	-0.17409566
63	0xbe0dfc43	-0.13865761
64	0xbef4d023	-0.47815046
65	0xbe575d48	-0.21031678
66	0xbf0fb2c6	-0.5613216
67	0xbea9f9d1	-0.33198407
68	0xbeb99470	-0.3624606
69	0xbe5fc5ba	-0.2185277
70	0xbe73b044	-0.23797709
71	0xbe55c5b2	-0.20876196
72	0xbeb9db0b	-0.3629993
73	0xbd6addf6	-0.057340585
74	0xbe5dfc2f	-0.21678232
75	0xbf02fbbe	-0.5116538
76	0xbe62364e	-0.22091028
77	0xbe5aa80f	-0.21353172
78	0xbe65c58c	-0.2243864
79	0x3d9fc3cc	0.07801017
80	0x3e8a0f41	0.26964763
81	0xbe75be74	-0.23998433
82	0xbea63260	-0.32460308
83	0xbdcafbbc	-0.09911296
84	0xbe48adee	-0.19597599
85	0xbcdbfce0	-0.026853979
86	0xbecd55e2	-0.40104586
87	0xba4a1209	-0.0007708376
88	0x3e0324fa	0.12807074
89	0xbe81be69	-0.25340584
90	0xbdb36519	-0.08759517
91	0xbdf67314	-0.12033668
92	0xbdfa1348	-0.12210709
93	0x3e24bde0	0.16088057
94	0xbf064c61	-0.52460295
95	0xbc021325	-0.007939135
96	0xbd16c486	-0.036808513
97	0xbefe7a4b	-0.49702677
98	0xbf056948	-0.5211377
99	0xbdac839a	-0.084235385

hidden_layers.0.bias f4 [10]
0	0x3f0f41d0	0.55959797
1	0x3ee6a3f8	0.45046973
2	0xbf1a63c2	-0.6030847
3	0xbf094085	-0.53614074
4	0x3f764977	0.9620585
5	0x3f92fd2c	1.1483512
6	0xbed3b881	-0.41351703
7	0xbf1857da	-0.5950905
8	0xbf14006a	-0.5781313
9	0xbeb1d733	-0.34734496

fc2.weight f4 [1, 10]
0	0xbf935f2e	-1.1513422
1	0xc0320306	-2.7814345
2	0xbe42cb2a	-0.19022813
3	0xbe81a72d	-0.25322857
4	0x3f986849	1.1906825
5	0xbf934b37	-1.1507329
6	0x3d01a7f3	0.03165431
7	0x3c59dbf8	0.013297074
8	0x3e873ec5	0.26415077
9	0xbe6c2e1d	-0.23064466
