models/zoos/zoo_medium/model_135_7215.pth (torch, 3278 bytes, 5 tensors)

fc1.weight f4 [10, 2]
00000000: f367 853e 3304 0340 fc46 7e3f a163 e8be
00000010: 693e 32bf c595 533f 7bc8 6a3e 39bb 66be
00000020: 5681 24bf 792f 463f 4f2d 98bf a199 87bf
00000030: 3082 cc3f 56c7 b13f 6416 63bf fc69 b23e
00000040: b8a1 a5bf a64c adbf cbeb 46bf 9542 1cc0
0.2605587 2.0471313 0.99327064 -0.4538851 -0.6962648 0.82650405 0.2292804 -0.22532357
-0.6425985 0.7741619 -1.1888827 -1.0593759 1.597723 1.3888958 -0.8870604 0.34846485
-1.2939978 -1.3539016 -0.7770354 -2.4415638

fc1.bias f4 [10]
00000000: 6010 e03f 5266 3dbf 5ae6 62bf 519e bd3e
00000010: e695 46bf def6 62bf 9b10 86bf 3c03 d83f
00000020: 2aef 74bf 46c9 613f
1.7504997 -0.73984253 -0.8863274 0.37034848 -0.77572477 -0.8865794 -1.0473818 1.6875987
-0.95677435 0.88197744

hidden_layers.0.weight f4 [10, 10]
00000000: d10b a13f f140 0abf 3515 cc3e 508c e83e
00000010: a20b 123f 5d72 813f aa5f dbbf 6b4a 5dbd
00000020: 513c 913f 29ca 24bf aa4c 563f b829 14bf
00000030: 95f0 403f 7036 f23e 6ae7 393f b4b2 ce3f
00000040: b78f ccbf a4c1 ff3e 84ec 773f c4b0 8fbf
00000050: 6eb3 1fbe 84a6 4cbf 59e5 a1be be49 90bf
00000060: cbba 983d d3f1 6fbf 5ce5 843f f87d 923f
00000070: 59ff 06bf 5c15 2f3f a048 adbe af5a ffbe
00000080: 8425 073e cdbc 13bf 60af 7a3c 9cd5 4abe
00000090: fc46 24bf 9fa4 35bf 3c81 f1bd 4ee0 65be
000000a0: d1f1 b6be bb06 b3be 14c5 273e 4641 45be
000000b0: 2354 8a3e 1430 28be bb44 4cbe c8e2 02bf
000000c0: 8e9b 7e3e 0d2c 73bd bcf1 cc3d 8da0 8b3f
000000d0: 3069 89bf 701c ec3e b032 91be 5753 a4bf
000000e0: 4a6f bd3f c636 523f 94e5 bebf f6f4 9f3f
000000f0: 5fb9 8bbf 28b4 77bf 2a00 cdbd 9f9e afbf
00000100: 5e28 203f 9df7 be3f 7a7c 4dbf 5641 fa3e
00000110: e5e8 db3f 9e77 093f fc06 ac3f 55d4 95bd
00000120: 2d5d 2a3f 7eeb 6d3e e85f 7d3f 167e 9c3f
00000130: efa7 f4bf 8caa ef3e f7ac 943f a6e3 86bf
00000140: 1320 603d f21d 463f 4feb aebe cc26 c4bd
00000150: ee11 ffbe af07 96bf 570c bb3f daa5 923f
00000160: 9d6e b3bf d2fa 843f 36bc ebbe f728 6abe
00000170: 8e72 78be 0000 5437 da6d 23be 7b0b 82be
00000180: 4862 993d 6126 0bbe cbd2 04bf ddcf 7abe
1.2581731 -0.5400534 0.3985993 0.4541955 0.57049 1.0113026 -1.7138569 -0.05402605
1.1346532 -0.6437097 0.8371073 -0.5787616 0.753671 0.47307158 0.72618735 1.6148286
-1.5981358 0.49952424 0.9684527 -1.122582 -0.1559579 -0.7994158 -0.3162029 -1.1272504
0.07457503 -0.9372837 1.0382495 1.1444693 -0.5273338 0.68391967 -0.3384447 -0.49873874
0.13197905 -0.5770996 0.015300602 -0.19808048 -0.64170814 -0.70954317 -0.117922276 -0.22448847
-0.35731366 -0.34966072 0.16383773 -0.19263181 0.27017316 -0.1642459 -0.19948094 -0.5112729
0.24864027 -0.059368182 0.10007045 1.0908371 -1.0735226 0.46115446 -0.28358984 -1.2837933
1.4799588 0.8211483 -1.4913812 1.2496631 -1.0915946 -0.9675927 -0.10009797 -1.3720282
0.62561595 1.4919316 -0.8026806 0.48877972 1.7180449 0.53698146 1.3439631 -0.0731589
0.66548425 0.23234364 0.98974466 1.2225978 -1.9113749 0.46809804 1.1615285 -1.0538223
0.05471809 0.7738944 -0.341639 -0.095777124 -0.49818367 -1.1721095 1.4613141 1.1456864
-1.4018131 1.0389044 -0.4604203 -0.2286719 -0.24262449 1.2636185e-05 -0.15959874 -0.25399384
0.07489449 -0.13588859 -0.51884145 -0.24493356

hidden_layers.0.bias f4 [10]
00000000: 5f76 4e3f edc5 933f cd14 57bf dad2 5dbe
00000010: c540 00bf a478 5f3f 9fab d9be 0dd9 9d3f
00000020: 8a6f 873e 47e5 f4be
0.8064937 1.1544777 -0.84016114 -0.21662465 -0.5009883 0.8729346 -0.4251375 1.2331864
0.26452285 -0.47831175

fc2.weight f4 [1, 10]
00000000: bb3e 363f 7baf 963f 2654 3bbf 419b 5abe
00000010: b813 3ebe 82f0 8abf ae59 b83f 5946 a43f
00000020: c673 a4bf 13c8 a93d
0.7118947 1.1772302 -0.73175275 -0.21348287 -0.1856221 -1.0854647 1.4402368 1.2833968
-1.2847831 0.08290114
