models/zoos/zoo_medium/model_45_4219.pth (torch, 3268 bytes, 5 tensors)

fc1.weight f4 [10, 2]
0	0xbfb2cc1c	-1.3968539
1	0x3fae45b9	1.3615028
2	0xbfad8cfa	-1.3558648
3	0x3f5c1616	0.859712
4	0xbfdb134b	-1.7115263
5	0x3e586f24	0.21136147
6	0xbd75c028	-0.059997708
7	0x3f391845	0.7230266
8	0x3e56bb03	0.20969777
9	0x3e16766b	0.1469361
10	0x3fd24f68	1.6430483
11	0xbda5ced1	-0.08096088
12	0xbfc5e917	-1.5461758
13	0x3f85972d	1.043676
14	0xbe92a9e6	-0.28645247
15	0xbfa0496b	-1.2522405
16	0x3fa02217	1.2510403
17	0xbfbc97e1	-1.473385
18	0x3f3a8689	0.72861534
19	0x3f933b0d	1.1502396

fc1.bias f4 [10]
0	0xbf5d405e	-0.8642634
1	0xbf69a153	-0.91261786
2	0x3ea6964d	0.32536545
3	0x3f85a2ba	1.0440285
4	0x3f8088c7	1.0041741
5	0x3fb3964c	1.4030242
6	0x3f50a118	0.8149581
7	0xbf089fca	-0.5336882
8	0xbf7416cd	-0.9534729
9	0xbf8008c8	-1.000268

hidden_layers.0.weight f4 [10, 10]
0	0x3e8e1109	0.27747372
1	0x3c294760	0.0103319585
2	0xbecf2db5	-0.4046456
3	0xbe866ec6	-0.26256388
4	0xbe474e64	-0.19463497
5	0x3d144ea8	0.036207825
6	0xbe43b6a2	-0.19112638
7	0xbe2092c5	-0.15680988
8	0xbf0ebfcd	-0.55761415
9	0x3e3260ae	0.17419693
10	0xbcd510db	-0.026009014
11	0x3e96fcc8	0.29489732
12	0xbe646c7e	-0.22307011
13	0x3d01547c	0.03157471
14	0x3f164ab4	0.5870774
15	0x3f5f21d2	0.8716098
16	0xbd6182a0	-0.055056214
17	0xbe88bd5f	-0.2670698
18	0x3cc3e946	0.023914944
19	0x3eaa8eb9	0.33312014
20	0xbfea6696	-1.8312557
21	0xbfae837b	-1.3633875
22	0x3f84667e	1.0343778
23	0x3f03bc05	0.5145877
24	0x3e5c8feb	0.21539275
25	0xbe32a4ce	-0.1744568
26	0x3f9700af	1.1797084
27	0x3f90ae18	1.1303129
28	0x400006ae	2.0004077
29	0xbf36bf21	-0.7138539
30	0x3fe72e05	1.8060919
31	0x3fcd69dd	1.6047932
32	0xbe60221f	-0.21888016
33	0xbda9a03b	-0.08282515
34	0x3e75e823	0.24014334
35	0x3f53b686	0.82700384
36	0xbfac5cf5	-1.3465868
37	0xbdf343e1	-0.11878181
38	0xc002429f	-2.0353162
39	0x3fb12648	1.3839808
40	0x3fdf4746	1.7443626
41	0x3f6ff67e	0.9373549
42	0xbdd69e48	-0.104794085
43	0x3e5e5c0e	0.21714804
44	0x3e6f470a	0.23366943
45	0x3f00b74d	0.50279695
46	0xbf1a6842	-0.60315335
47	0xbf266867	-0.65003055
48	0xbf886003	-1.06543
49	0x3f794351	0.9736834
50	0x3e5c7fd2	0.21533135
51	0xbe3a476f	-0.18191312
52	0xbedd88eb	-0.43268523
53	0xbf084d86	-0.5324329
54	0xbd774740	-0.060370684
55	0xbf23e281	-0.6401749
56	0xbece98fa	-0.40351087
57	0xbe854969	-0.2603257
58	0xbe89363e	-0.26799196
59	0x3e966345	0.29372612
60	0x3fdc6c60	1.7220573
61	0x3f8f86c8	1.1213007
62	0xbe36c64b	-0.1784908
63	0x3d9bcde5	0.07607631
64	0x3ecb068b	0.3965343
65	0x3e83ddd7	0.25755188
66	0xbebf5c1e	-0.37374967
67	0xbf1eaadb	-0.61979455
68	0xbf27004b	-0.6523482
69	0x3f849839	1.0358955
70	0x3fe9aeb9	1.8256446
71	0x3f590dfa	0.8478695
72	0xbeaa1a53	-0.3322321
73	0x3f128fdc	0.5725076
74	0x3f190a49	0.5978132
75	0x3f0f9eaf	0.56101507
76	0xbf7487c2	-0.9551965
77	0xbdf1aa61	-0.11800075
78	0xbf87fe0b	-1.0624403
79	0x3f7352e0	0.9504833
80	0x3fe4a25f	1.7862052
81	0x3facd789	1.3503276
82	0xbca312fe	-0.019906517
83	0xbc0365a1	-0.008019836
84	0x3eba8410	0.3642888
85	0x3f49dd36	0.78853166
86	0xbfb638e5	-1.4236113
87	0xbe37bd14	-0.17943221
88	0xbfea32a4	-1.8296704
89	0x3fc11350	1.5084019
90	0x3fab8ccb	1.3402342
91	0x3f7ded89	0.99190575
92	0xbe034743	-0.12820153
93	0x3ec27749	0.37981632
94	0x3eadf49a	0.3397568
95	0x3f252587	0.6451039
96	0xbfe83f5c	-1.8144336
97	0x3d76018e	0.060060076
98	0xbff84880	-1.9397125
99	0x3f70397d	0.9383772

hidden_layers.0.bias f4 [10]
0	0xbeb9722e	-0.36219925
1	0xbf33a392	-0.70171463
2	0x3f48e940	0.7848091
3	0x3f5d54f3	0.8645775
4	0xbe80fab7	-0.2519128
5	0xbe48933f	-0.1958742
6	0xbe790c77	-0.24321161
7	0x3ce46269	0.027878957
8	0x3f060941	0.5235787
9	0x3f7f91f5	0.9983209

fc2.weight f4 [1, 10]
0	0x3d8e2b9c	0.069419116
1	0x3e72c754	0.2370885
2	0x3fb43041	1.4077226
3	0xbfc3a9c4	-1.5286183
4	0xbf038610	-0.5137644
5	0x3e0f6ae5	0.14005621
6	0xbefc68cb	-0.492987
7	0xbf6cee04	-0.92550683
8	0xbfb3cf9c	-1.4047732
9	0xbf78db9b	-0.9721009
