models/zoos/zoo_medium/model_225_7641.pth (torch, 3278 bytes, 5 tensors)

fc1.weight f4 [10, 2]
000000 63 1a 37 bf 06 79 83 3f ad 36 9a bf 5c 4c ac 3f
       -0.7152464 1.0271308 -1.2047936 1.3460803
000010 d5 8f fd 3f 59 ff ec be de 9d 40 bf db 1a 89 3f
       1.9809519 -0.46288565 -0.75240886 1.0711321
000020 cc 2c 24 c0 8a 17 58 3f f5 92 f0 be f9 8c 99 bf
       -2.5652342 0.8441092 -0.4698712 -1.1996146
000030 5a a7 2d 3f a4 d3 2c be 60 bc 2c 3f 00 21 29 3f
       0.67833483 -0.1687761 0.6747494 0.6606598
000040 77 57 ca 3f 5e e1 c9 bf aa 7d 71 be 0a 9d 23 bf
       1.5807942 -1.5771902 -0.23583093 -0.639115

fc1.bias f4 [10]
000000 08 84 36 bf 8d 16 6f bf d6 45 6b 3f 5a 76 3b bf
       -0.71295214 -0.93393785 0.91903436 -0.73227465
000010 bc 9c a0 3f d5 0f 6f bf 50 56 36 3f e1 b0 42 bf
       1.2547832 -0.9338353 0.7122545 -0.76051146
000020 f7 06 85 bf 00 ba 80 3f
       -1.039275 1.0056763

hidden_layers.0.weight f4 [10, 10]
000000 b0 6f af 3d 08 78 df 3d c0 48 0c bc 14 fc 3a be
       0.085662246 0.10911566 -0.008562267 -0.18260223
000010 80 f8 9d 3b 26 dc 12 3e f0 1b c6 bd e4 6d 91 bd
       0.0048208833 0.14341792 -0.096732974 -0.07101038
000020 b5 a5 03 be cf 0a 71 be a0 5b 5f 3f 78 cf bc 3f
       -0.12856181 -0.2353928 0.87249184 1.4750814
000030 5c 7c bb 3f 4d 9f 12 3f 14 87 5f bf 58 c9 20 bf
       1.4647326 0.57274324 -0.8731549 -0.62807226
000040 36 77 c3 3d 18 bf 7a 3d 91 a1 0d c0 56 2d 81 3f
       0.09544222 0.061217397 -2.2129862 1.009196
000050 4a 51 24 3f f9 52 24 3f 21 40 8a 3f 92 4e f3 3e
       0.6418654 0.64189106 1.080082 0.47520882
000060 fb 74 13 bf 51 25 bf be 68 90 01 3f 4f f6 13 3f
       -0.57600373 -0.37333158 0.5061097 0.5779771
000070 f4 1c 04 c0 b6 f0 4f 3f 4b f2 1d 3f 82 02 72 3f
       -2.0642672 0.8122667 0.61697835 0.94535077
000080 cf 01 9e 3f b1 a1 38 3f 1b e3 ed be 3b d0 ac be
       1.2344302 0.7212172 -0.4646233 -0.33752617
000090 0e 9e 02 3f fb 96 39 3f f2 90 fc bf 7e 60 18 3f
       0.5102242 0.72496 -1.9731734 0.59522235
0000a0 86 be f8 3e 6c 83 db 3e c2 33 8b be 87 3a d6 3e
       0.48582858 0.42873704 -0.27187926 0.41841528
0000b0 cb 96 51 bc 1e 99 10 bf 21 e7 62 3e 98 f2 e5 3e
       -0.0127922995 -0.5648364 0.22158481 0.44911647
0000c0 4e d3 02 bf 12 02 62 bf 4a 22 38 3f 37 9d 52 3f
       -0.51103675 -0.8828441 0.7192732 0.8227114
0000d0 04 84 4b 3f 15 e9 49 3f 2f cc 0a bd 23 b2 36 bf
       0.79498315 0.7887128 -0.03388613 -0.71365565
0000e0 f0 c9 8f be f1 d8 2a 3f 2d 7e b4 bf 7b c6 d9 be
       -0.28083754 0.66737276 -1.4101006 -0.4253424
0000f0 14 02 db be c4 00 71 bf 03 9b ac be 4b 5f d5 be
       -0.42775023 -0.94141793 -0.33712015 -0.41674265
000100 fe 49 da 3f 2b df 8b 3f a9 17 6d 3f bf 8a 58 3e
       1.7053831 1.092748 0.9261423 0.21146677
000110 d9 57 f9 3f 36 5a 4d 3f ac 23 ba 3f 91 ae c3 3f
       1.9479934 0.80215776 1.4542136 1.5287648
000120 c0 bc 32 bf 01 b2 98 3f ee c9 d2 3e 01 61 b4 be
       -0.6981926 1.1929322 0.41169685 -0.35230258
000130 1f 48 29 3d 66 fa 93 3e 43 b5 5e be 00 28 90 be
       0.041328546 0.28901976 -0.21748833 -0.28155518
000140 18 3d f1 bd b1 cb a8 be 65 42 34 be c5 83 12 bf
       -0.11779231 -0.32967904 -0.17603453 -0.57232314
000150 2f 7a 2e be 9d 82 f4 3d fa f4 75 be 77 0d 31 be
       -0.17038797 0.11938975 -0.24019232 -0.17290293
000160 40 5a e3 3d 03 e5 24 bf 37 d0 bd 3e 7a 3a 05 3f
       0.11101198 -0.64411944 0.37072918 0.52042353
000170 43 4b b7 3e 35 c7 a1 3e 66 26 b7 be 4a 7b ca be
       0.35799608 0.31597295 -0.35771483 -0.39547187
000180 c3 d2 19 be 48 16 1c 3f 7d b0 0f bf 1e 90 0f bf
       -0.15021805 0.609715 -0.56128675 -0.5607928

hidden_layers.0.bias f4 [10]
000000 dd ae 2c be bf b7 59 bd ed 6c cd 3e bd d1 1b 3d
       -0.1686358 -0.05315375 0.40122166 0.03804182
000010 e5 27 34 bf 1c a1 f8 be 3f 70 15 3f 4c 1d 14 bf
       -0.70373374 -0.48560417 0.583744 -0.57857203
000020 dc 8d 09 bf 58 72 46 be
       -0.53732085 -0.19379556

fc2.weight f4 [1, 10]
000000 24 74 39 3e dc 75 b1 3f c8 c8 bf 3f 87 78 96 3f
       0.1811071 1.3864093 1.4983149 1.1755532
000010 1c d7 87 bd 55 20 57 3f a0 86 bc bf 49 17 e6 3f
       -0.06632826 0.8403371 -1.4728584 1.7975856
000020 4e 7f 80 3e 53 6b a4 3d
       0.25097126 0.08028283
