models/zoos/zoo_medium/model_135_3487.pth (torch, 3278 bytes, 5 tensors)

fc1.weight f4 [10, 2]
00000000: b7ad 973f 049d a93f 03d2 953e e649 c8bb
00000010: 2a4d 0abf cab3 35be f591 afbd bcb3 f5bb
00000020: beaf c3bf 9534 1bbf 10c2 9abf cd0f d73c
00000030: 5fde 36bd 9e9c 653e fd5a 65bf 1a57 96be
00000040: ff10 6f3f 9f81 c33f d117 52be 81ee b4bf
1.1849889 1.3251042 0.2926179 -0.006112325 -0.54023993 -0.17744365 -0.08572761 -0.0074982326
-1.5288007 -0.6062711 -1.2090473 0.026252652 -0.044645663 0.22423026 -0.8959196 -0.29363328
0.9338531 1.5273932 -0.20516898 -1.4135286

fc1.bias f4 [10]
00000000: 46fb 79bf 8976 2ebf da52 853f 06ce 22bf
00000010: ca01 58bf 6698 09be 1ab6 5cbf f5c1 a43f
00000020: 715a 383f fe46 8d3f
-0.9764904 -0.6814962 1.0415909 -0.63595617 -0.8437773 -0.13437042 -0.86215365 1.2871691
0.72013 1.103729

hidden_layers.0.weight f4 [10, 10]
00000000: cfec 523f 1cfa efbe 0567 243f 1bae 2f3f
00000010: dcf9 c5be 1757 023f 27d6 68bd e34c ccbd
00000020: 2a0f e8be 94a4 3c3f 370e e5be 3ede d7bd
00000030: 8fe8 1b3e fcb2 0bbe abc1 7f3f 65e5 443f
00000040: 1ae5 3a3e 0657 083f 0800 833f 73a5 4e3e
00000050: 9107 883f d1e6 0c3e 3227 823f a6c2 09be
00000060: 7e33 8a3c d190 f73e 4c99 efbd 149d ae3e
00000070: 4772 4ebf 1e00 413f 96ad 993f 297b 01be
00000080: 4669 7ebf 7d82 6a3e 711b f6be 21eb 95be
00000090: baf5 edbe ed66 4ebf b8fa c23e 076a 833f
000000a0: bddb 6bbd 6254 7d3e a981 42be 7c69 93be
000000b0: cdd6 08be 3a2f 1dbf 8a50 09be d21a 3ebe
000000c0: ab2b eebe a9e8 0cbf 6ee2 5dbf bce3 823c
000000d0: 3e3e da3e 9c2a adbe aaaf 443f c2c2 ca3e
000000e0: 3f16 473e 1847 293f 62f6 873f 7286 a0bc
000000f0: c8e3 7f3f 0b08 debe 31ea dfbf 7ee8 633e
00000100: 7002 87bb 6097 f4bd 36dd 00be d2b4 71bf
00000110: 2453 513f e011 b53e ef84 8e3f b59f e5be
00000120: fc29 14bf 7859 ac3e 81c4 1bbf 189a edbe
00000130: 5154 66be 3927 2ebf 669a 7d3e eac4 693f
00000140: 3540 65be c8dd fd3d 95c7 9fbe c0f0 0fbc
00000150: 5075 fdbd 5020 a43c dbde 6fbe 6246 62be
00000160: 4822 713d 307b 6ebe e080 9cbf c906 603e
00000170: 0185 4f3e 9d13 a3be 17fe a23f 065e 193f
00000180: dd07 1c3f 560e c33e bd2c d03f 785c a0bd
0.8239259 -0.46870506 0.64219695 0.6862504 -0.3866719 0.5091414 -0.056844857 -0.099756025
-0.4532407 0.73688626 -0.44737408 -0.10540436 0.15225433 -0.13642496 0.9990489 0.7691253
0.18251458 0.5325779 1.0234385 0.20180301 1.0627309 0.13759924 1.0168211 -0.13453159
0.016870257 0.48352674 -0.11699161 0.34104216 -0.80643123 0.75390804 1.2006099 -0.12644638
-0.99379385 0.2290134 -0.4806781 -0.29280952 -0.46476537 -0.806258 0.38081908 1.0266732
-0.057582606 0.2473922 -0.18994774 -0.28791416 -0.1336319 -0.61400187 -0.1340963 -0.18564919
-0.4651769 -0.5504251 -0.8667363 0.015977733 0.42625612 -0.3382157 0.7683054 0.39601713
0.1944208 0.66124105 1.0622065 -0.019595359 0.9995694 -0.4336551 -1.7493345 0.22256657
-0.0041201636 -0.11942935 -0.12584385 -0.94416535 0.8176749 0.353652 1.1134318 -0.4484841
-0.57876563 0.3366201 -0.60846716 -0.46406627 -0.22493102 -0.680286 0.2476593 0.9131609
-0.22387774 0.12395817 -0.31206957 -0.008785427 -0.12375891 0.020034939 -0.23424856 -0.22097161
0.058870584 -0.2328918 -1.222683 0.21877588 0.2026558 -0.318509 1.2733792 0.59909093
0.609495 0.38096875 1.6263653 -0.07830137

hidden_layers.0.bias f4 [10]
00000000: 47e4 713f 872e 1fbe 7fdf 813f e5c5 013f
00000010: 07a4 6ebe bc6a 97be 958a 293f 600b e83e
00000020: eff5 1cbe a6bd 03bf
0.9448895 -0.15545093 1.014633 0.5069259 -0.23304759 -0.2957362 0.66227084 0.45321178
-0.15328191 -0.51461256

fc2.weight f4 [1, 10]
00000000: e6eb f9be 067e 773f a7f0 3dbf 86e4 63bf
00000010: 333b 013c 71a1 493f 4285 53bf d039 18bf
00000020: a0da 62bd 0bde 673f
-0.4881279 0.9667667 -0.7419533 -0.89020574 0.007887649 0.78761965 -0.8262521 -0.59463215
-0.05538428 0.90573186
