models/zoos/zoo_medium/model_0_8049.pth (torch, 3258 bytes, 5 tensors)

fc1.weight f4 [10, 2]
00000000: c393 79be 023c 193f b8b7 d63f 820d 2e3f
00000010: 5fc2 73be 9dc3 fe3d 97e3 e13c 82cd aebe
00000020: e8ff 053e 2021 c5bf bfac 1e3e 1863 d4be
00000030: 9645 b5bf 5d71 cf3e c5c4 023d a2df 5dbe
00000040: 3c00 c83f c241 5d3e d261 383f 0252 63bf
-0.24372773 0.5985719 1.6774817 0.6798936 -0.23804615 0.12439654 0.027574344 -0.34141165
0.13085902 -1.5400734 0.15495585 -0.41481853 -1.4161861 0.40516177 0.031925935 -0.2166734
1.5625072 0.21607116 0.7202426 -0.8879701

fc1.bias f4 [10]
00000000: ffb9 143f e46c 2a3f 72c6 0abf bb2f 74bf
00000010: aabf 5cbf a6a1 8d3f 35b5 5abf 6dc4 0a3f
00000020: 30ae 5bbf 432f 81bf
0.5809631 0.66572404 -0.54209054 -0.9538533 -0.86229956 1.1064956 -0.8543275 0.5420597
-0.85812664 -1.0092548

hidden_layers.0.weight f4 [10, 10]
00000000: 9392 af3e ffcd 923f f268 483e 64e2 f93d
00000010: 54c7 9abf fd2b a83c f7f5 5a3f f96c 803e
00000020: 4ddd 01c0 030e 01bc 3863 e43e c63d 34bf
00000030: 4093 123e efe3 073e 8ea2 b13f ae95 273f
00000040: ad3f 17bf 1cd8 043f e63d e83f 0741 693f
00000050: 1102 993e 785e 6b3f 8e48 f5be 6e0e cdbe
00000060: 68f3 4cbf d459 8c3d 5084 953f 45f0 943e
00000070: 2fa8 d8bf 5e58 11be df9a 043f d967 f8be
00000080: f2c7 ef3d 14f3 163e 68cb a53f 86e4 033f
00000090: 5e09 92bf 2225 cd3d 2a4e e13f dd4f 303f
000000a0: f028 f1be a031 8fbe 3dbe 803e b9aa 8bbe
000000b0: 40f0 a23b 9411 41be 42c9 16be 5ea0 90be
000000c0: ceb8 61be 302f 7ebd a059 5fbf cea9 f4be
000000d0: 4ba3 13bf d05c 0dbf 6266 0e3f d201 edbd
000000e0: c59f f8be 2aa1 4cbe d880 423f 462a a13e
000000f0: 1c28 443e edde 943f 9fc7 31be 8583 08be
00000100: e08e 13bf cbf6 debd f169 b23f 901e 53be
00000110: 4997 02c0 cdbb b5bd f069 7cbd 5855 0dbd
00000120: d09b a8bc 1061 533d e784 05be a1ef 8dbe
00000130: 7863 5ebd ba05 88be 67f8 1dbe f23f 47be
00000140: ea36 f73e d508 0e3f a679 ffbe 520f 92be
00000150: e39d d4be 9dff babe 1059 5f3f 00d4 34be
00000160: 5731 5fbf 97a9 acbe ff56 7c3f 75f9 6e3e
00000170: c604 87bd 3950 10bd 4a1f 21be 2637 88be
00000180: 6c24 24bf 850e 6fbe 796c e43f 3104 f8bd
0.34291515 1.1469115 0.19571283 0.12201384 -1.209208 0.020528788 0.8553156 0.2508314
-2.0291321 -0.007876876 0.44606948 -0.7040676 0.14313984 0.13270544 1.3877733 0.6546277
-0.59081537 0.51892257 1.814389 0.9111485 0.2988439 0.9194102 -0.47906917 -0.4005007
-0.8005891 0.06853071 1.1681004 0.2908956 -1.6926326 -0.14193866 0.51798815 -0.4851673
0.117080584 0.14741164 1.29527 0.51520574 -1.1409109 0.10016848 1.7601979 0.6887186
-0.47101545 -0.27967548 0.2514514 -0.2727869 0.0049724877 -0.18854362 -0.14725211 -0.2824735
-0.22043154 -0.06205672 -0.8724613 -0.477858 -0.5767104 -0.55219746 0.55624974 -0.11572613
-0.48559394 -0.19983354 0.7597785 0.31477565 0.19155926 1.1630532 -0.17361306 -0.1333142
-0.57639885 -0.10886916 1.3938581 -0.20617127 -2.0404837 -0.08873711 -0.061624467 -0.03450522
-0.02058211 0.051606238 -0.1303898 -0.27721885 -0.05429408 -0.2656687 -0.15426789 -0.19457987
0.48284084 0.55482227 -0.49897498 -0.28527313 -0.41526708 -0.36523142 0.87245274 -0.17658997
-0.8718466 -0.33723137 0.98570246 0.23337348 -0.06592707 -0.035232756 -0.15734592 -0.26604575
-0.64118075 -0.23345383 1.7845603 -0.121101744

hidden_layers.0.bias f4 [10]
00000000: f45c d13e 1220 193f 40aa 6f3e 82ca 4f3f
00000010: 06d3 bfbe b867 45bf 164f 053f 8c3e 5fbe
00000020: 8f87 753e a918 bb3d
0.4089123 0.5981456 0.23404789 0.8116838 -0.37465686 -0.7711139 0.520738 -0.21801203
0.23977493 0.09135563

fc2.weight f4 [1, 10]
00000000: 649d 60bf 3eed 943f cd52 1ebf 30c4 243f
00000010: ad4a c7bc 05f8 b03e eb73 87bf 8405 a43d
00000020: 234b c2be 40de 573e
-0.8774016 1.16349 -0.61845094 0.6436186 -0.0243276 0.34564224 -1.058225 0.080088645
-0.3794795 0.21080875
