models/zoos/zoo_medium/model_225_1981.pth (torch, 3278 bytes, 5 tensors)

fc1.weight f4 [10, 2]
-2.1561098 1.7645011 -1.2171267 1.2206104 -1.9886409 1.2808843 -1.9968812 0.4873439
0.14298786 -0.49115375 -0.23577815 0.6604569 0.483197 -1.9766341 0.88375974 1.1666307
0.039561007 0.16691998 1.5836773 0.19250694
00000000: b4fd 09c0 2cdb e13f cfca 9bbf f63c 9c3f
00000010: c98b febf 04f4 a33f ce99 ffbf 2485 f93e
00000020: 696b 123e 8178 fbbe d46f 71be b413 293f
00000030: 9965 f73e 5902 fdbf 143e 623f 2854 953f
00000040: b90a 223d 12ed 2a3e f0b5 ca3f 8a20 453e

fc1.bias f4 [10]
-1.087661 0.6531658 0.78400266 0.8632408 0.6446077 1.476231 -0.63512427 -0.8462984
-0.36111164 -0.38926154
00000000: 7a38 8bbf e035 273f 66b4 483f 59fd 5c3f
00000010: 0305 253f 23f5 bc3f 8197 22bf 03a7 58bf
00000020: a0e3 b8be 4a4d c7be

hidden_layers.0.weight f4 [10, 10]
1.930364 -0.22291905 -0.95833117 -0.26134032 0.33641946 1.0275489 -0.7293665 0.5100189
0.0006865215 0.19717197 0.31077567 -0.20952815 -0.34479842 -0.40941557 -0.24801108 -0.4732261
-0.30639577 -0.0029156203 -0.33771703 -0.07559635 1.8821797 0.4015815 -0.49143988 -0.20927654
-0.83145434 0.3710341 -0.5082804 0.94365907 0.21422338 0.34349886 -1.6276029 1.0253466
1.0681058 1.0508767 0.422604 -0.29935592 1.0445992 -0.35886395 0.7054883 1.4509014
-2.0884976 1.2624483 1.2928814 0.8777185 0.36441076 -0.5766843 0.89142185 -0.49011996
0.6725628 1.3322687 -0.6840857 0.22474277 0.5430195 0.108044796 0.31128234 -0.31660408
0.5763958 -0.37791 0.1411414 -0.52857697 1.9901735 -0.42904562 -1.3781444 -0.24715564
0.15430559 1.033388 -0.6225698 0.95507246 0.1511114 0.13450833 -0.26691157 -0.3101159
-0.52141356 -0.32063702 -0.2765335 -0.0507006 0.014221609 -0.021326602 -0.24104188 -0.6110892
2.1617732 -0.17954186 -1.0204812 -0.38271403 -0.18678638 0.953214 -0.23190394 1.0146781
0.40011087 0.11097437 2.2018526 -0.33072984 -0.99453527 -0.5505491 0.6584628 0.55643994
-1.0647626 0.95087016 0.084066845 0.041346405
00000000: 2b16 f73f e444 64be 3155 75bf 66ce 85be
00000010: 2c3f ac3e b986 833f c3b7 3abf 9990 023f
00000020: aef7 333a 73e7 493e fd1d 9f3e 8c8e 56be
00000030: 6b89 b0be eb9e d1be 9ef6 7dbe b14a f2be
00000040: e8df 9cbe fe13 3fbb 3fe9 acbe 42d2 9abd
00000050: 44eb f03f 179c cd3e 029e fbbe 974c 56be
00000060: 31da 54bf 2ef8 bd3e aa1e 02bf a493 713f
00000070: 605d 5b3e 15df af3e 4b55 d0bf 8f3e 833f
00000080: b1b7 883f 2183 863f 8d5f d83e 2e45 99be
00000090: 6db5 853f 04bd b7be e29a 343f 23b7 b93f
000000a0: f2a9 05c0 e897 a13f 237d a53f 29b2 603f
000000b0: 0c94 ba3e 95a1 13bf 3934 643f 01f1 fabe
000000c0: 132d 2c3f c887 aa3f 3e20 2fbf f822 663e
000000d0: 5303 0b3f 9746 dd3d 6660 9f3e ee19 a2be
000000e0: ad8e 133f 6b7d c1be 5f87 103e d250 07bf
000000f0: 01be fe3f deab dbbe 0967 b0bf 5e16 7dbe
00000100: 4902 1e3e 0f46 843f bc60 1fbf a17f 743f
00000110: f2bc 1a3e 8dbc 093e a2a8 88be 83c7 9ebe
00000120: 5c7b 05bf 892a a4be cd95 8dbe 6fab 4fbd
00000130: c001 693c 20b5 aebc afd3 76be 5870 1cbf
00000140: 7e5a 0a40 d2d9 37be 219f 82bf 18f3 c3be
00000150: ee44 3fbe d505 743f 3a78 6dbe f9e0 813f
00000160: 55db cc3e 8846 e33d 27eb 0c40 6c55 a9be
00000170: dd99 7ebf c9f0 0cbf 0591 283f d972 0e3f
00000180: 244a 88bf 3a6c 733f 3d2b ac3d d95a 293d

hidden_layers.0.bias f4 [10]
0.6538018 -0.38681248 -0.24939044 0.025087332 0.119374655 -0.085724175 1.1016768 -0.6031131
0.61817443 1.336007
00000000: 8e5f 273f 490c c6be 3560 7fbe f383 cd3c
00000010: b37a f43d 2890 afbd bf03 8d3f 9f65 1abf
00000020: ae40 1e3f 4702 ab3f

fc2.weight f4 [1, 10]
1.1215806 0.23757161 0.9374045 -1.0501901 -0.9465349 -0.25471127 1.0527699 0.008750149
1.2972081 1.309858
00000000: f48f 8f3f f945 733e bef9 6f3f a16c 86bf
00000010: 1c50 72bf 8469 82be 2ac1 863f c95c 0f3c
00000020: ea0a a63f 6da9 a73f
