models/zoos/zoo_medium/model_270_1511.pth (torch, 3278 bytes, 5 tensors)

fc1.weight f4 [10, 2]
0.5284969 0.22586273 -0.091152266 2.1641562 -0.4632031 -0.58821595 0.59395593 0.38622934
0.27206716 -1.9156348 0.65440226 1.1155236 0.47299 -1.4136018 0.4100427 0.13547407
0.040201206 -2.3257482 -0.76589644 1.6355631
00000000: 934b 073f 8f48 673e 0aae babd 8981 0a40
00000010: f528 edbe 5295 16bf 7f0d 183f dabf c53e
00000020: 634c 8b3e 8533 f5bf e886 273f 7ac9 8e3f
00000030: bf2b f23e e7f0 b4bf 1ef1 d13e b7b9 0a3e
00000040: 05aa 243d 0fd9 14c0 ca11 44bf 225a d13f

fc1.bias f4 [10]
1.1800385 -1.0673077 1.362078 1.3846298 0.8816225 -0.99654496 0.57306653 0.79711175
-1.0518181 0.81255454
00000000: 800b 973f 8a9d 88bf 9258 ae3f 8d3b b13f
00000010: 03b2 613f 921d 7fbf 7db4 123f 840f 4c3f
00000020: faa1 86bf 9303 503f

hidden_layers.0.weight f4 [10, 10]
0.8433524 1.7366381 -0.10028393 0.8532259 0.96621174 1.2432581 1.0559753 0.570403
-1.2899824 -0.50011486 0.49731362 1.3529614 -0.28209195 0.8207561 0.9625838 1.0524
0.9062643 0.6667981 -1.5267503 -0.15735894 0.3989238 1.9582562 -0.24626237 0.5250275
0.90853876 0.853876 0.8174131 0.8217096 -1.3941443 -0.27986696 -0.35015854 -0.3000644
0.12370892 -0.07773326 -0.5307291 -0.07340948 -0.26443172 -0.19566241 0.2558919 -0.45092493
-0.48520562 -0.0929841 -0.29018596 -0.17839469 -0.22740051 -0.29763797 0.061098456 -0.5277508
-0.21402906 -0.2791029 -0.9693784 -0.3762633 0.5749872 -1.3500983 -0.044216968 -0.6721596
0.52971464 -0.5993806 1.7185445 0.50021565 -0.06743909 -0.69930536 0.6426265 0.06375868
-0.3210171 -0.6459437 0.12932086 0.7826918 1.6018245 0.9044163 -0.24388108 -1.108166
0.5018393 0.017322723 -0.584155 -1.1271563 -0.1633205 0.18536003 1.7989224 1.1440356
0.15286885 -1.7644398 0.5718464 0.2376552 -1.1553609 -0.8019914 -0.6596572 0.22266446
1.8135315 1.2418838 -0.14511093 -1.8866858 0.66051376 -0.014357613 -0.71279067 -0.8652531
-0.99739826 0.0021840972 2.1172867 1.2132272
00000000: f1e5 573f 284a de3f a961 cdbd 036d 5a3f
00000010: a759 773f 1523 9f3f 332a 873f ee05 123f
00000020: 251e a5bf 8707 00bf e49f fe3e d72d ad3f
00000030: 5b6e 90be 121d 523f e46b 763f 0bb5 863f
00000040: f000 683f 48b3 2a3f 8e6c c3bf b422 21be
00000050: be3f cc3e 24a8 fa3f 342c 7cbe 3468 063f
00000060: ff95 683f 9e97 5a3f fc41 513f 8f5b 523f
00000070: 5273 b2bf b94a 8fbe fb47 b3be 0ba2 99be
00000080: 1a5b fd3d 9e32 9fbd dddd 07bf b657 96bd
00000090: 9863 87be ba5b 48be 4304 833e a2df e6be
000000a0: df6c f8be 736e bebd 4193 94be 19ad 36be
000000b0: aedb 68be 0164 98be 6042 7a3d ad1a 07bf
000000c0: 6f2a 5bbe 93e6 8ebe 2f29 78bf 95a5 c0be
000000d0: 5c32 133f 05d0 acbf da1c 35bd a712 2cbf
000000e0: 619b 073f 0271 19bf 44f9 db3f 220e 003f
000000f0: 811d 8abd ad05 33bf 2c83 243f e993 823d
00000100: 5a5c a4be 915c 25bf b06c 043e 7d5e 483f
00000110: 9608 cd3f d487 673f f6bb 79be 62d8 8dbf
00000120: 8a78 003f 62e8 8d3c 2f8b 15bf a846 90bf
00000130: 7d3d 27be 05cf 3d3e 1743 e63f c26f 923f
00000140: a789 1c3e 2ad9 e1bf 8764 123f e25b 733e
00000150: dee2 93bf 4f4f 4dbf 4bdf 28bf 2702 643e
00000160: cd21 e83f 0cf6 9e3f f697 14be ec7e f1bf
00000170: 6e17 293f 323c 6bbc 7379 36bf 3a81 5dbf
00000180: 7e55 7fbf 1223 0f3b a081 0740 074b 9b3f

hidden_layers.0.bias f4 [10]
0.8169639 0.5223916 -0.19843759 -0.49360365 -0.29713467 0.23035878 0.5583227 0.4808455
0.85912585 0.9677007
00000000: 8c24 513f 75bb 053f 3933 4bbe 9eb9 fcbe
00000010: 0922 98be 2ce3 6b3e 3dee 0e3f 6231 f63e
00000020: acef 5b3f 3cbb 773f

fc2.weight f4 [1, 10]
0.90780205 1.0523846 0.77545387 0.010701838 0.26217705 -0.8944864 -1.0137864 -1.2678536
-1.6590363 -1.1753826
00000000: b765 683f 8ab4 863f 2584 463f c356 2f3c
00000010: 123c 863e 10fd 64bf c1c3 81bf 0749 a2bf
00000020: 4d5b d4bf f072 96bf
