models/zoos/zoo_medium/model_270_3390.pth (torch, 3278 bytes, 5 tensors)

fc1.weight f4 [10, 2]
0	0xbf12faad	-0.5741375
1	0xbfade52e	-1.3585565
2	0xbecf6c3b	-0.4051226
3	0xbf17164b	-0.5901839
4	0xbe38bd30	-0.1804092
5	0x4008bf4f	2.1366765
6	0xbda9d820	-0.08293176
7	0x3dfafe30	0.12255514
8	0x3f412b4b	0.75456685
9	0xbf8a9896	-1.0827816
10	0xbf6c3881	-0.9227372
11	0x4012234c	2.2834044
12	0xbf2d0aed	-0.67594796
13	0x3f9cb27b	1.2241968
14	0x3e5ef577	0.21773325
15	0x3e38cb2f	0.18046258
16	0x3f5fc28a	0.8740622
17	0x3eb59c33	0.35470733
18	0xbecfcdc3	-0.4058667
19	0xbfdb35b7	-1.7125767

fc1.bias f4 [10]
0	0xbf626bbb	-0.88445634
1	0x3fa02182	1.2510226
2	0xbf68c529	-0.9092584
3	0xbf16a3bf	-0.58843607
4	0x3eedd1ea	0.46449214
5	0x3f85cec2	1.0453722
6	0x3ef6f720	0.48235416
7	0xbf65f4c1	-0.8982659
8	0xbe69c881	-0.22830392
9	0xbf8e1036	-1.1098697

hidden_layers.0.weight f4 [10, 10]
0	0xbe915617	-0.28385994
1	0xbe849f49	-0.25902775
2	0x3d706078	0.05868575
3	0xbd9834fe	-0.074319825
4	0xbefba230	-0.49147177
5	0xbeeb5c8b	-0.45969042
6	0xbf0764ce	-0.5288819
7	0x3e2da498	0.16957319
8	0x3b51de00	0.0032023191
9	0xbc680f78	-0.014163844
10	0xbf9469b7	-1.1594762
11	0x3f32390b	0.6961829
12	0x3fdd5be3	1.7293667
13	0xbc8b1030	-0.016975492
14	0x3e83dfe3	0.2575675
15	0xbf81a9ca	-1.012994
16	0xbeffb95d	-0.49946108
17	0x3e223459	0.15840282
18	0x3f189e3b	0.5961644
19	0xbfb33b04	-1.4002385
20	0xbf0c3541	-0.5476876
21	0xbf81876a	-1.011945
22	0x3eb9f2f1	0.36318162
23	0x3da830d4	0.08212438
24	0x3f07b40e	0.53009117
25	0x3eb73bf4	0.35787928
26	0xbeaa747f	-0.33292004
27	0x3e32a30c	0.1744501
28	0x3ed9bd7b	0.42527375
29	0xbf215d80	-0.63033295
30	0xbe947e20	-0.29002476
31	0xbdd8b18c	-0.105807394
32	0xbdbf4d3e	-0.09340905
33	0xbdfbbc04	-0.122917205
34	0xbe1cb197	-0.1530212
35	0xbe948142	-0.29004866
36	0xbdc22118	-0.094789684
37	0xbe3533de	-0.17695567
38	0xbe97a384	-0.2961694
39	0x3e939f19	0.2883232
40	0x3f977236	1.183173
41	0x3e98d926	0.2985317
42	0xbfc33b60	-1.5252495
43	0x3e8733af	0.2640662
44	0x3e644f87	0.22295962
45	0x3fcc6288	1.5967569
46	0x3f71596b	0.94277066
47	0x3ddc6da6	0.10763101
48	0xbed05d09	-0.4069598
49	0x3f89939b	1.0748171
50	0xbf3d2b9e	-0.7389468
51	0xbfec6b07	-1.8470162
52	0x3fe8ece4	1.8197293
53	0x3d8ee8b0	0.06977975
54	0x3f51f2ad	0.8201092
55	0x3f23d69e	0.63999355
56	0xbc3a5d9c	-0.011374857
57	0x3ed5b535	0.41739812
58	0x3f36deec	0.714339
59	0xbf2685f5	-0.6504815
60	0x3f37baeb	0.7176959
61	0x3e36f761	0.17867805
62	0xbfba5149	-1.4556056
63	0x3e97f001	0.29675296
64	0x3d8717b0	0.06596315
65	0x3fd9e9e1	1.7024499
66	0x3f4fb14e	0.8112992
67	0x3ece7e48	0.4033072
68	0xbeb0a7f1	-0.3450313
69	0x3f53042a	0.8242823
70	0xbf73edaf	-0.9528455
71	0x3f23026c	0.6367557
72	0x3fc7f736	1.5622318
73	0xbd90328e	-0.070408925
74	0x3f84b288	1.0366983
75	0xbf0ca455	-0.5493825
76	0xbe9e03c4	-0.30862248
77	0x3e621875	0.22079642
78	0x3f0d62d7	0.5522894
79	0xbfb5abae	-1.4193017
80	0xbf822454	-1.0167336
81	0xbfca3869	-1.5798465
82	0x3fedbd79	1.8573447
83	0xbd8bfefc	-0.06835744
84	0x3f83dabd	1.0301129
85	0x3ecc657f	0.39921185
86	0x3df2ac7d	0.11849306
87	0x3eb21ff9	0.34790018
88	0x3eb821cc	0.35963285
89	0xbf1368c7	-0.5758175
90	0x3f32ef5b	0.6989648
91	0x3e58acad	0.2115962
92	0xbf1f6e82	-0.62277997
93	0x3e4a47aa	0.197539
94	0x3cd51954	0.026013054
95	0xbd9f9f96	-0.077941105
96	0x3f2d7fee	0.6777333
97	0xbea206fe	-0.3164596
98	0xbe929355	-0.2862803
99	0x3f152bab	0.5826976

hidden_layers.0.bias f4 [10]
0	0xbef42843	-0.47686967
1	0x3fa9f0b6	1.3276584
2	0x3d4843db	0.048892837
3	0xbe6b35f0	-0.22969794
4	0x3e8c479c	0.27398384
5	0xbe4c30ef	-0.19940542
6	0x3ee45cc9	0.4460204
7	0x3f89525a	1.0728257
8	0xbdbdfb5a	-0.09276457
9	0xbf0a0cfb	-0.53926057

fc2.weight f4 [1, 10]
0	0xbcd0896d	-0.025456155
1	0x3fc815d0	1.5631657
2	0x3f049989	0.51796776
3	0xbdea609a	-0.114442065
4	0xbf93411e	-1.1504247
5	0x3fb72055	1.4306742
6	0xbf8c32a8	-1.0952959
7	0x3facf8d4	1.3513436
8	0x3f8dca17	1.1077298
9	0xbe79930a	-0.24372497
