models/zoos/zoo_medium/model_0_3595.pth (torch, 3258 bytes, 5 tensors)

fc1.weight f4 [10, 2]
1.2466205 -0.3439141 -1.9285258 -0.07643751 -0.7725527 0.23871258 0.11214751 -0.55231166
-1.216113 -0.6318191 -0.3833625 -0.6726817 -1.3656764 -0.5708704 1.0218252 -0.9572354
1.743831 -0.35339355 0.5336667 1.0696685
00000000: 4391 9f3f 8215 b0be efd9 f6bf 458b 9cbd
00000010: 04c6 45bf 1271 743e 98ad e53d 4c64 0dbf
00000020: 97a9 9bbf e6be 21bf 1748 c4be de34 2cbf
00000030: 7cce aebf 9024 12bf 2bcb 823f 610d 75bf
00000040: db35 df3f 00f0 b4be 619e 083f e6ea 883f

fc1.bias f4 [10]
-0.75284386 -0.93926036 0.3025485 -0.3790885 0.581449 1.0460354 0.77721554 0.8711627
-0.9635223 1.1583033
00000000: 60ba 40bf 5e73 70bf a3e7 9a3e e317 c2be
00000010: d7d9 143f 7de4 853f 99f7 463f 8504 5f3f
00000020: 66a9 76bf 4843 943f

hidden_layers.0.weight f4 [10, 10]
-0.28613526 -0.5172413 -0.0351136 0.052038014 -0.31338838 -0.18942899 -0.22089884 -0.21026427
-0.067663655 -0.24845324 -0.7070229 2.5787802 0.5505936 -0.32846746 -0.15212014 0.3021783
-0.641425 1.3687956 -1.4405173 1.1019044 1.0092264 -1.7335117 -0.42963517 0.62635404
0.6145616 0.17988409 0.42788243 0.29512426 1.6544483 -0.91784483 -0.8388049 2.16718
-0.13610359 0.017915502 -0.2423664 0.43213496 -0.7205072 1.5869737 -1.3849748 0.7428423
1.0480963 -2.3170187 0.34067148 0.3644759 0.64241064 0.2799465 1.3497801 -0.19044848
1.7709183 -0.45331624 1.102993 -2.2608886 0.3836414 0.3024439 0.8936237 0.38471678
1.0367452 -0.30484644 1.4329891 -0.3745337 1.1224967 -2.37927 0.42616108 0.24066466
0.5987085 0.53741854 1.3417752 -0.4859377 1.2485634 -0.581781 0.84888124 -1.9251196
0.45128557 0.37339294 0.5147766 0.5300706 1.069098 0.06653141 1.3392645 -0.14533113
-0.2236162 -0.16729382 -0.37374148 0.60209936 -0.0416407 -0.35875905 -0.37974367 0.042740848
0.11112404 -0.21584517 -0.989435 2.3428462 0.2809059 -0.2080976 0.8635122 -0.92325443
-0.11299703 -1.4096392 -0.07394451 0.76481116
00000000: 5280 92be ed69 04bf 47d3 0fbd d025 553d
00000010: 7174 a0be acf9 41be 4e33 62be 844f 57be
00000020: 3e93 8abd 876a 7ebe 74ff 34bf bc0a 2540
00000030: b4f3 0c3f e32c a8be 62c5 1bbe 1db7 9a3e
00000040: 6e34 24bf b234 af3f df62 b8bf 340b 8d3f
00000050: 552e 813f b6e3 ddbf 24f9 dbbe bd58 203f
00000060: e953 1d3f 8933 383e 6813 db3e 871a 973e
00000070: f6c4 d33f e1f7 6abf ebbb 56bf 14b3 0a40
00000080: bd5e 0bbe 88c3 923c e62e 78be cb40 dd3e
00000090: 2973 38bf f421 cb3f db46 b1bf ea2a 3e3f
000000a0: 0528 863f 094a 14c0 7e6c ae3e 969c ba3e
000000b0: 0675 243f 2655 8f3e 98c5 ac3f ed04 43be
000000c0: 73ad e23f 1119 e8be e02e 8d3f 66b2 10c0
000000d0: a56c c43e edd9 9a3e 86c4 643f 99f9 c43e
000000e0: 11b4 843f d514 9cbe 306c b73f e2c2 bfbe
000000f0: f9ad 8f3f f645 18c0 c931 da3e cc70 763e
00000100: f644 193f 4394 093f 4abf ab3f d4cc f8be
00000110: edd0 9f3f 9aef 14bf 4850 593f 526a f6bf
00000120: e70e e73e 5c2d bf3e 66c8 033f b5b2 073f
00000130: 34d8 883f 9f41 883d 056d ab3f afd1 14be
00000140: a5fb 64be 124f 2bbe 0b5b bfbe 2f23 1a3f
00000150: 708f 2abd 44af b7be c36d c2be 0711 2f3d
00000160: 0095 e33d 8406 5dbe 9d4b 7dbf 31f1 1540
00000170: e6d2 8f3e 8a17 55be 230f 5d3f 675a 6cbf
00000180: fd6a e7bd 0f6f b4bf 3870 97bd aaca 433f

hidden_layers.0.bias f4 [10]
-0.4037098 0.7400393 -0.39550057 0.3129324 0.053246543 0.19050804 0.31623507 0.03354138
-0.47032404 0.07339674
00000000: 0db3 cebe 3773 3d3f 0d7f cabe ad38 a03e
00000010: 0c19 5a3d 8a14 433e 90e9 a13e b062 093d
00000020: 50ce f0be 0851 963d

fc2.weight f4 [1, 10]
0.067161806 -1.0986972 0.9736824 -1.0076118 1.4541304 1.2625712 1.1556493 0.83127135
-0.046193685 -1.0627716
00000000: 218c 893d 1ca2 8cbf 4043 793f 6cf9 80bf
00000010: f220 ba3f ef9b a13f 51ec 933f 33ce 543f
00000020: 9735 3dbd e608 88bf
