models/zoos/zoo_medium/model_90_6521.pth (torch, 3268 bytes, 5 tensors)

fc1.weight f4 [10, 2]
0	0xbf518408	-0.8184209
1	0xbf3ff97b	-0.7499005
2	0xbf90bd8c	-1.1307845
3	0xbe9e1dc9	-0.308821
4	0xbf42ce84	-0.7609637
5	0xbcaf56aa	-0.02140363
6	0x3f402eed	0.75071603
7	0xbfc0db3b	-1.5066904
8	0xbdb2dbc6	-0.08733325
9	0xbf9f2e31	-1.2435971
10	0xbe8c3274	-0.27382243
11	0xbf1bf99d	-0.60927755
12	0x3ec7b2dc	0.39003646
13	0x4006288f	2.0962255
14	0x3d5b4a2d	0.053537536
15	0xbfece16a	-1.8506291
16	0xbf204173	-0.6259987
17	0xbf842020	-1.0322304
18	0xbf37de20	-0.7182331
19	0x3f9b275a	1.2121384

fc1.bias f4 [10]
0	0x3f4de0cd	0.80421144
1	0xbf19c6e6	-0.6006912
2	0xbf06f925	-0.52723914
3	0x3f42370d	0.7586525
4	0xbf24bbc3	-0.64349
5	0x3fd51b27	1.6648911
6	0xbf995dd0	-1.1981754
7	0xbf7c5374	-0.9856484
8	0xbf7118e5	-0.9417861
9	0x3f9161df	1.1357993

hidden_layers.0.weight f4 [10, 10]
0	0x3f894553	1.0724281
1	0xbe25c3cd	-0.16187973
2	0xbf931289	-1.1490031
3	0x3fc9925f	1.5747794
4	0xbfccd207	-1.6001595
5	0x3f95c1e3	1.1699795
6	0xbf431dea	-0.7621752
7	0xbf933fde	-1.1503866
8	0xbf4b8c94	-0.7951138
9	0xbff4f236	-1.9136417
10	0x3f589a00	0.84609985
11	0xbc5c30bf	-0.013439356
12	0x3f31ab0c	0.6940162
13	0x3f9eb1ea	1.2398045
14	0xbfb6348d	-1.4234787
15	0xbefe12ae	-0.49623626
16	0x3fce1e6d	1.6103035
17	0xbf678c8d	-0.9044884
18	0xbf17d774	-0.5931313
19	0xbd8b202a	-0.06793244
20	0x3e48cce7	0.19609414
21	0x3f3a7e4a	0.7284895
22	0x3e8a3bc8	0.26998734
23	0xbf42b225	-0.76053077
24	0x3f73c42f	0.9522123
25	0x3f3ccfe5	0.7375472
26	0xbf8f4b9c	-1.1194949
27	0x3fffee34	1.9994569
28	0x3f28eaed	0.6598347
29	0x3f82b7ca	1.0212338
30	0x3f24205d	0.6411188
31	0x3f53407f	0.8252029
32	0x3f3c8f14	0.7365582
33	0xbf6749ac	-0.9034679
34	0x3fa3755e	1.2770193
35	0x3f0f7a05	0.5604556
36	0xbf0c2ae0	-0.5475292
37	0x3fbd39eb	1.47833
38	0x3ef72355	0.48269144
39	0x3f01af74	0.50658345
40	0x3e9f8f86	0.31164187
41	0x3ed60045	0.4179708
42	0x3f05dcd5	0.5229009
43	0xbf68112d	-0.9065121
44	0x3fd24171	1.6426221
45	0x3f2f9374	0.6858437
46	0xbfa9a1ed	-1.3252541
47	0x3fc37ed2	1.5273077
48	0x3f4356a5	0.76304084
49	0x3f946c7b	1.1595606
50	0xbe788833	-0.24270706
51	0xbe09b5d5	-0.1344827
52	0xbc8d45dd	-0.017245227
53	0xbedfd66b	-0.43718275
54	0xbee4ad76	-0.4466359
55	0xbe2ce79e	-0.1688523
56	0xbea04f57	-0.31310531
57	0x3b6393b9	0.00347255
58	0xbec6d46f	-0.3883395
59	0xbed3ff3f	-0.41405675
60	0x3e935eb7	0.287832
61	0x3eea4f55	0.4576365
62	0x3f5b13e9	0.85577255
63	0xbe349f5e	-0.17638919
64	0x3f4510bf	0.7697868
65	0x3eba6366	0.3640396
66	0xbe2953d0	-0.16535878
67	0x3fe147a3	1.7599987
68	0x3f50c675	0.8155282
69	0xbf0c8e81	-0.54904944
70	0x3c0e0120	0.00866726
71	0x3e8b06f9	0.27153757
72	0xbebca8ae	-0.36847442
73	0xbdc6f1f1	-0.097141154
74	0xbc5875c1	-0.0132116685
75	0xbf04a63c	-0.51816154
76	0xbe7a3441	-0.24433996
77	0xbf0dc7a3	-0.55382746
78	0xbd9d7f52	-0.076903
79	0xbe8274d1	-0.2547975
80	0x3e1473d5	0.14497311
81	0xbe18bb02	-0.14915088
82	0xbee2297f	-0.44172284
83	0x3f945163	1.1587337
84	0xbfae169b	-1.3600649
85	0xbe0a98d3	-0.1353486
86	0x3fc5410c	1.5410476
87	0xbfa49f4d	-1.2861115
88	0xbe76a1c2	-0.24085143
89	0xbe468cbb	-0.19389622
90	0xbe8d8209	-0.2763827
91	0xbf025a5f	-0.50919145
92	0x3e044a5c	0.12918991
93	0x3eaef4e4	0.34171212
94	0xbe72b367	-0.23701249
95	0xbf42c332	-0.76079094
96	0x3f997d68	1.1991396
97	0xbeb8746c	-0.36026323
98	0xbe6195b1	-0.22029759
99	0x3efa0fcb	0.48840174

hidden_layers.0.bias f4 [10]
0	0x3f4f0748	0.80870485
1	0x3d93fc7f	0.07225894
2	0x3ee58deb	0.44834837
3	0xbeb79a20	-0.35859776
4	0x3f1cca37	0.61246055
5	0xbee5e99e	-0.44904798
6	0xbf50b0c5	-0.8151973
7	0xbf091943	-0.5355417
8	0x3f3d0b24	0.73845124
9	0x3e1b2a1c	0.15152782

fc2.weight f4 [1, 10]
0	0xbfc9ae08	-1.5756235
1	0xbf921560	-1.1412773
2	0x3f8152c5	1.0103384
3	0x3f352f2c	0.70775104
4	0x3f8fae78	1.1225119
5	0x3e12673b	0.14297192
6	0x3f518155	0.8183797
7	0xbc36c514	-0.0111553855
8	0xbf8829a8	-1.0637712
9	0xbf54d0fc	-0.83131385
