models/zoos/zoo_big/model_90_6215.pth (torch, 4488 bytes, 7 tensors)

fc1.0.weight f4 [10, 2]
000000 25 82 34 bd 10 b5 9a 3f b3 ed 46 bf 85 0b bb 3e
       -0.044069428 1.2086506 -0.7770645 0.36532226
000010 78 f7 54 bc 07 bc b4 3f 1b 3f 39 3e e6 45 a1 be
       -0.012998454 1.4119881 0.18090479 -0.3149864
000020 9c 52 30 bf 67 7c dd 3e 3c 2d 82 3f ed 82 31 3f
       -0.6887605 0.43258974 1.0170054 0.693404
000030 11 e5 f6 be ec 8c d1 3f 76 9a 87 3f 86 0a 20 be
       -0.4822164 1.6371131 1.0594013 -0.15629014
000040 02 5f 58 3d 14 51 e1 bb 09 7b 36 3b 72 76 98 bf
       0.05282498 -0.0068761203 0.002784433 -1.1911147

fc1.0.bias f4 [10]
000000 66 28 27 3f fc fa 88 3f 45 94 47 3f f9 d1 5d bf
       0.6529602 1.0701594 0.77960616 -0.8664852
000010 af 41 ac be 07 59 49 bf c1 e7 61 bf d8 41 cf 3f
       -0.33643863 -0.7865147 -0.88244253 1.6191969
000020 ac d3 6e bf cb 0c 28 bf
       -0.93291736 -0.6564452

hidden_layers.0.0.weight f4 [10, 10]
000000 25 fb 2a be 90 0a 8b 3b 29 b4 0c bf 52 1d 03 3f
       -0.16697367 0.0042432025 -0.549624 0.51216614
000010 b2 e5 52 3e d0 26 77 3f 74 e4 de 3f 3e 39 57 3f
       0.20595434 0.965436 1.7413468 0.8407172
000020 08 2b bd bd 8d fb 82 bf c1 62 d5 be c9 5c fc be
       -0.09236723 -1.0233017 -0.41676906 -0.4928954
000030 5f 54 18 be 5a d2 0d be 4f 79 b1 be b0 6f 92 be
       -0.14875935 -0.13849774 -0.34662864 -0.28600836
000040 b2 da fa bd 04 26 f2 be 43 62 05 bf ca ab e1 be
       -0.12248744 -0.4729463 -0.5210306 -0.44076377
000050 de 14 02 bf 3a 0c 54 be 8b c4 06 3c 33 2a 38 be
       -0.5081309 -0.20707789 0.00822557 -0.17984848
000060 9c 7f b0 3e 7d 27 06 be 64 20 a7 be 2d 89 1b bf
       0.34472358 -0.13101001 -0.326419 -0.6075619
000070 45 2c 9f 3e 1c 9a 50 3d c0 5d 3c 3e c5 fd 26 bd
       0.31088462 0.05092822 0.18395138 -0.040769357
000080 85 bb 38 bf 6f 7a e9 3e f1 45 f1 3e 5c 2d 9c 3f
       -0.7216113 0.45601222 0.47123674 1.2201343
000090 7a 39 18 40 ce ec 73 3f 9e 6b aa 3e b4 87 9c bf
       2.378508 0.9528321 0.3328523 -1.2228913
0000a0 74 73 97 3e 86 8b 5d 3e aa 24 35 bf 2f 21 1e 3e
       0.2958027 0.21635255 -0.7075907 0.15442346
0000b0 fd 32 15 3f 98 5c 96 3f c4 2c e3 3f 39 e5 5b 3f
       0.58280927 1.1747007 1.7748036 0.8589664
0000c0 64 82 48 3d c7 67 70 bf a4 8e 32 3f 59 d0 27 3f
       0.048952475 -0.9390835 0.697489 0.6555229
0000d0 86 17 35 3f a5 75 04 bf 0e 98 ca 3e 1b 1e c4 bd
       0.7073902 -0.5174201 0.39569134 -0.09576055
0000e0 d8 9b c4 bf 61 71 69 bd 56 a7 82 3c c3 f6 b1 3f
       -1.536006 -0.056992892 0.015948933 1.3903431
0000f0 13 3a e6 be cd ed f7 3e 2a 56 c8 be 48 38 34 be
       -0.44966182 0.48423615 -0.39128238 -0.17599595
000100 d7 dd 28 3f d5 b0 15 bf a6 37 6e 3d 5a 5f f5 be
       0.659635 -0.5847295 0.05815854 -0.4792431
000110 80 ae bf b9 e2 b9 e0 3f 65 0e 8e 3f e0 4a b4 3e
       -0.00036560372 1.7556727 1.1098143 0.35213375
000120 8a 59 bb 3f 53 ec 43 be f1 67 a2 3c e5 87 69 bf
       1.46367 -0.1913312 0.019824954 -0.91222984
000130 e3 67 02 c0 ab d2 b4 3a e9 e3 fe 3e 9c 8d c2 3f
       -2.0375907 0.0013795694 0.49783257 1.5199466
000140 70 8a 3e be cf 1c eb bd de 37 c8 be 10 bf 92 bc
       -0.18607497 -0.11480104 -0.39105123 -0.017913371
000150 80 a5 fd be 38 59 6a 3d eb 20 9c be 88 22 85 bd
       -0.4954033 0.057213992 -0.30493864 -0.06500727
000160 0b 6a 0a be 03 8b 06 bf f3 85 09 be 76 6b db be
       -0.13517015 -0.52555865 -0.13430004 -0.42855424
000170 f0 9c e2 bd 64 ac e2 3d f5 53 e4 be c3 ee d5 be
       -0.1106509 0.11068037 -0.44595304 -0.41783723
000180 0c b8 81 bc 4c 5d 14 bf 24 37 f8 3d 51 84 88 be
       -0.01583483 -0.5795486 0.12119892 -0.2666345

hidden_layers.0.0.bias f4 [10]
000000 3f c2 1b 3f e9 c4 34 be 85 ae fd be 88 d1 94 3f
       0.6084327 -0.1765324 -0.4954721 1.1626444
000010 31 69 3b 3f f9 4d 06 3f b2 03 7d 3e ae 99 8e 3e
       0.73207384 0.52462727 0.24708441 0.27851623
000020 ec 20 d7 be af 6d b5 be
       -0.42017305 -0.35435244

hidden_layers.1.0.weight f4 [10, 10]
000000 ea a5 33 3f 88 74 02 bd 0c 79 e5 be f1 69 19 3f
       0.7017504 -0.031849414 -0.44818914 0.5992728
000010 81 20 42 3f 94 ce 84 3d db f3 9d bf 25 77 05 be
       0.7583085 0.06484714 -1.2340044 -0.13033731
000020 20 b8 73 bd b0 ef 8e 3d c6 94 f6 bd cd 94 aa be
       -0.059501767 0.069793105 -0.12040095 -0.3331665
000030 dc 36 04 3f 17 4f 11 bf cd d1 15 be 1f 6b 65 3f
       0.5164621 -0.56761307 -0.14630814 0.8961658
000040 75 ca c6 3f 83 0d 5e 3f 6d c4 15 3a cd 81 99 be
       1.5530535 0.8673937 0.00057131686 -0.29981843
000050 f8 39 93 3f a8 e7 1a 3e e1 1e 83 be f4 f0 a9 3f
       1.1502066 0.15127432 -0.25609496 1.3276658
000060 f1 06 8a 3f 67 eb 77 be d1 3e c5 bf 43 3a 95 bf
       1.0783368 -0.24210893 -1.5409795 -1.1658405
000070 08 29 7f 3d 06 77 02 3e a2 ca 14 3e b8 75 09 3d
       0.06229499 0.12740716 0.14530423 0.03355953
000080 a2 b8 78 3e ae 32 99 be 54 e1 9a be 5d 87 86 be
       0.24289182 -0.29921478 -0.30250037 -0.2627515
000090 f0 e9 44 be b0 b4 dc 3d 14 02 26 3e 6c 51 e1 3d
       -0.19229865 0.10776651 0.1621173 0.11001858
0000a0 ce a2 80 3d ca 20 7a be 03 71 eb 3e fd ca 1c bf
       0.062810525 -0.2442657 0.4598466 -0.61247236
0000b0 84 88 f2 bd 3c 35 95 3f 0d 68 ed 3f 2c d2 76 3f
       -0.118424445 1.1656871 1.8547379 0.96414447
0000c0 e3 fe a0 3e a6 27 e0 be b5 e8 a0 3e 0a cc 86 bd
       0.31444463 -0.4378025 0.3142754 -0.06581886
0000d0 dd a3 85 3e 8a e6 ad be 1a bd 7e be 7e 5a ee be
       0.2610158 -0.3396495 -0.24876824 -0.46553415
0000e0 6b a8 a0 3e 42 7c 75 3e 90 49 18 bd 1e d7 2b be
       0.31378493 0.23973182 -0.03717953 -0.1678128
0000f0 2e cd 85 3f 39 f2 2a 3e f8 88 28 bd 2d cc 9c 3f
       1.0453241 0.16693963 -0.04114625 1.224981
000100 6a 1b 4c 3f 01 92 08 3e 96 40 cd bf 5d dc 44 bf
       0.7972933 0.13336946 -1.6035335 -0.7689875
000110 7f f5 9c 3e 39 ba be 3e 0d 0c 07 bf d1 ff fe be
       0.3065605 0.37251452 -0.52752763 -0.49804547
000120 31 33 10 3d 3b 13 1d bf 67 ad be be 1e b5 2b 3f
       0.03520507 -0.6135747 -0.3724167 0.6707324
000130 63 4a c9 3f 63 c3 bf 3f 29 1f ac 3e a4 5a 33 be
       1.5725826 1.4981502 0.33617523 -0.17515045
000140 7b 00 0d bf a5 a6 db 3e 50 e2 d3 be 35 04 68 3d
       -0.5507886 0.42900577 -0.413836 0.056644637
000150 18 a1 77 bd 23 1e 2e be 1d a2 36 3e 9b 48 bf be
       -0.060456365 -0.17003684 0.17835279 -0.3736008
000160 33 f4 5a be 70 7f 24 3e fb f9 ea be 56 cf 04 be
       -0.21382217 0.16064239 -0.45893845 -0.12969717
000170 89 31 10 be b3 cb 68 be 96 ae c2 be de 49 d0 be
       -0.14081396 -0.22733955 -0.38023823 -0.40681356
000180 b4 e7 d0 be 59 af 1d bf 00 55 b8 bb 48 f3 27 bd
       -0.40801775 -0.61595684 -0.005625367 -0.041003495

hidden_layers.1.0.bias f4 [10]
000000 94 59 cf be a6 09 71 3f a2 d7 29 3f 20 bb 49 3c
       -0.4049803 0.9415535 0.66344655 0.0123126805
000010 68 45 2d 3f 3d 5e c0 be 7d 67 0f 3f 17 10 51 3f
       0.6768403 -0.37571898 0.56017286 0.81665176
000020 74 34 f4 be 49 cc a6 be
       -0.4769627 -0.32577732

fc2.weight f4 [1, 10]
000000 4c b8 28 bf 80 a0 85 3f 9c 37 9a bf 6a fe 78 be
       -0.65906215 1.0439606 -1.2048221 -0.24315801
000010 a1 a3 4b 3f ad cd 48 bd d3 42 8b bf 37 a8 93 3f
       0.7954655 -0.049024273 -1.0879768 1.153571
000020 8e 20 f4 3d 40 fd 37 be
       0.11920272 -0.17967701
