models/zoos/zoo_big/model_90_3740.pth (torch, 4488 bytes, 7 tensors)

fc1.0.weight f4 [10, 2]
00000000: 71d6 8e3c a350 3c3f 54f1 edbe c99a 64bf
00000010: 669e 8b3f 1e6e 30bc 4c8a 203d 0fd4 0240
00000020: 7b6d c1be dfd8 1dbf eae3 a3be 1c11 1640
00000030: 73fc b53d 18c6 f3be cee4 c63e 6ebb 6dbf
00000040: ab7c 0bbf b04d b6bf 6def eb3f 8c45 c2bd
0.017436238 0.7356054 -0.4647318 -0.89298683 1.0907714 -0.0107684415 0.03919439 2.044193
-0.3777884 -0.61659044 -0.32009822 2.3447943 0.088860415 -0.4761207 0.3884644 -0.9286412
-0.54487103 -1.4242458 1.8432442 -0.09485921

fc1.0.bias f4 [10]
00000000: e3be ad3f 14a6 903f 93dd 65bd a772 b6bf
00000010: c57d 633f 003b 6f3f d5e2 043f b852 453f
00000020: d06b 49bf 7866 c9be
1.3573879 1.1300683 -0.056119513 -1.4253739 0.88863784 0.934494 0.5190862 0.77079344
-0.78680134 -0.3933599

hidden_layers.0.0.weight f4 [10, 10]
00000000: f945 9bbf 5155 053f 32d7 e23e ba0c 14c0
00000010: 7540 fe3e 6e38 0540 ac0f dabe eb6c f33a
00000020: 33a6 8d3f 2b8e 0dbe 598e 4fbe fca7 6cbe
00000030: e745 90be 88f8 053e fcda b6be 88ca e3be
00000040: 1440 cfbd 38f5 6cbe 1156 b63c b058 493d
00000050: 3363 b5bd a3df 2bbf 8adf cb3e e0ee cb3f
00000060: f363 4bbf 8e4b 3e3f 6300 c3be 092e 8fbe
00000070: f807 743e 7cb2 3b3f 3e59 77bf 304e 013f
00000080: 7697 d43e 019c f9bf e60a f43e c3a2 d73f
00000090: eb38 18bf a14d b1be 7bff 803f 3b6b 14be
000000a0: 6f87 303c f69b aebd 6883 813d 8212 d3bd
000000b0: 82e3 e1bd 5934 6dbe 60ba 85be 131b 9ebe
000000c0: b045 87be 08f1 eabe dab1 cbbd afa7 9bbe
000000d0: 963d 11bf f823 9ebe 9883 f1bd 22fd 2c3d
000000e0: 83a8 c7be 1351 b9be 4d26 8cbe 810e ebbe
000000f0: 4c21 9cbe c0f1 113d 30e1 0a3e 1848 6b3d
00000100: 60b6 2fbd c2a9 cbbd 0afe 733e 60a9 99be
00000110: c039 d33b 8861 ee3d 2e59 8a3f d64b f23d
00000120: c83c 1c3f 3ea6 e13f a277 88bd e5d4 11bf
00000130: c52f ed3e c348 503f 1e0b 67be 0aa5 6e3f
00000140: f4dc 9abf 96f1 e03e 46bd e3bc 664b e5bf
00000150: 9ee2 243f 8405 d93f 98df 9fbe 70bd 703e
00000160: 39f6 743f cecf 9f3d 06b5 f63b b06d 14bf
00000170: 1151 4f3f dad0 683f 2827 8fbe 7184 e63d
00000180: c20d 923e 4f63 093f 4530 ccbe 3bf3 913f
-1.2130729 0.5208331 0.44304806 -2.3132768 0.49658552 2.0815692 -0.42590082 0.0018571889
1.1066345 -0.13823764 -0.20269145 -0.23110956 -0.2817833 0.13083088 -0.35713947 -0.44490457
-0.10119644 -0.23140419 0.022257837 0.049156845 -0.088568114 -0.6713812 0.39818984 1.5932274
-0.79449385 0.7433404 -0.38086233 -0.2796481 0.23831165 0.7331922 -0.9662055 0.5050993
0.41521806 -1.9500734 0.47664565 1.6846546 -0.5946185 -0.3462954 1.0077966 -0.1449403
0.010774477 -0.08525841 0.06323892 -0.103062645 -0.11029722 -0.231645 -0.26118755 -0.3088003
-0.26420355 -0.45887017 -0.09946032 -0.3040137 -0.567346 -0.30886817 -0.11792678 0.042233594
-0.38995752 -0.36194667 -0.2737297 -0.45909503 -0.30494153 0.03563094 0.13562465 0.0574418
-0.042898536 -0.09944488 0.23827377 -0.30012035 0.0064460933 0.11639696 1.0808465 0.11830871
0.61030245 1.7628858 -0.06663443 -0.56965476 0.46325508 0.81361026 -0.22562835 0.9322058
-1.209868 0.43934315 -0.027800214 -1.7913635 0.6440829 1.6954808 -0.31225276 0.23509765
0.95688206 0.078033075 0.007528904 -0.5797987 0.8098307 0.9094368 -0.2795956 0.1125573
0.2852612 0.5366716 -0.39880577 1.1402353

hidden_layers.0.0.bias f4 [10]
00000000: af3f 973d 4c60 cdbe 0370 62be fb5a 12be
00000010: bd2a 01bf 3ea7 cbbe a33b 66be d216 763f
00000020: 6df9 9c3e fae4 31be
0.073851936 -0.4011253 -0.22113042 -0.14292519 -0.5045584 -0.39776033 -0.22483687 0.9612857
0.30659047 -0.17372504

hidden_layers.1.0.weight f4 [10, 10]
00000000: a935 a73f 67f4 94bb bbc5 13bf 0b57 883f
00000010: bbef dabc a1c9 9f3d 85e3 72be e5b8 40bf
00000020: eee8 193f 8ef6 263e c5e1 973f 3809 2f3d
00000030: f6e8 50bf f1ac 4e3f 804a 29bd 67a4 7c3d
00000040: bc5e c33d b093 ecbe 4e32 873f a773 813d
00000050: 90a7 a0be d01c 063d 9c2f 443f 2de2 bdbe
00000060: a621 cf3e d311 9dbe 7fa6 833e b7df 6e3f
00000070: 3202 773d d07e 563f 82f8 f5be 325f ecbe
00000080: e4b6 9f3d 41b1 d4bd f664 0d3e 7891 54bd
00000090: b44d e03d 582c 75be 7aad 8abe b8ce 0abf
000000a0: b316 36bd c2d7 6bbe 4121 51be 2c5e 0bbe
000000b0: a03d 7bbe 1fb4 f5be 83f9 843e 8729 80be
000000c0: ffd9 08bf bd21 8ebc 9410 f2be 416e 3bbe
000000d0: ec32 1c3e 12d7 00bf bba1 9d3e 5f96 bc3d
000000e0: c1d5 35be c547 d9be c552 853a 0d57 c8be
000000f0: 4285 16be 7f2b 8fbe d417 d9be 8133 0ebe
00000100: 2d2d 953e 7c51 54be 52ac c1bd f908 fd3b
00000110: 4792 bfbe 5a17 83be 903f 68be d0c7 fb3a
00000120: 25ff cc3e a76f 97be 4407 d93e eb97 9cbe
00000130: 9a07 3d3e 134a 7b3f 81a3 2e3d 71e5 0c3f
00000140: ab07 953f 7773 383e bbe1 d6be 989a 9a3f
00000150: 6ec2 edbd a309 073f 183f 30bd a3a3 8cbe
00000160: 151f 823f bc54 2dbe 5495 47bd baf1 68be
00000170: 6eac 67be 73e7 273e 1261 553e d021 013e
00000180: 9328 3cbe d0bd 18bf 46b4 04bf e6b2 ce3d
1.3063251 -0.0045457366 -0.5772359 1.0651563 -0.02672564 0.078021295 -0.23719604 -0.75282127
0.6012105 0.1630499 1.1865774 0.0427334 -0.8160547 0.8073264 -0.041330814 0.061680224
0.095395535 -0.46206427 1.0562227 0.06320887 -0.3137784 0.03274232 0.76635146 -0.3708662
0.4045536 -0.3067766 0.25712964 0.9331011 0.060304828 0.8378725 -0.4804116 -0.46166378
0.077985555 -0.10385371 0.13808045 -0.051896542 0.10952321 -0.23942697 -0.27085477 -0.5422168
-0.04445524 -0.23031524 -0.20422842 -0.13610142 -0.24535227 -0.47988984 0.25971612 -0.25031683
-0.53457636 -0.017350072 -0.47278273 -0.18303777 0.152538 -0.5032817 0.30787453 0.092083685
-0.17757322 -0.42437568 0.0010171762 -0.39128914 -0.14699271 -0.27962872 -0.42400992 -0.13886835
0.2913603 -0.20734209 -0.094566956 0.007722017 -0.37416288 -0.25603753 -0.22680497 0.0019209329
0.4003841 -0.2957737 0.42388356 -0.30584654 0.18459931 0.98159903 0.0426364 0.550376
1.1642965 0.18012796 -0.41969094 1.2078428 -0.1160935 0.5274908 -0.04302892 -0.27468595
1.0165735 -0.16926855 -0.048726395 -0.22748461 -0.2262437 0.16396885 0.2083781 0.12610555
-0.18374853 -0.5966463 -0.51837575 0.10092716

hidden_layers.1.0.bias f4 [10]
00000000: 90fb ac3e 6c28 2cbe f004 e93e 9575 91be
00000010: d0ab adbe f680 84be 0508 f8be 36e4 0c3f
00000020: 02b5 f2be e669 2fbe
0.33785677 -0.16812295 0.4551158 -0.2841002 -0.33920145 -0.2587964 -0.48443618 0.5503572
-0.47403723 -0.17130241

fc2.weight f4 [1, 10]
00000000: a779 6a3f a524 833f 06c4 37bf 9990 083e
00000010: 5cdf 3abe c227 4d3e a0a3 693e 49bb 33bf
00000020: c124 683f 74c4 26be
0.91591877 1.0245558 -0.71783483 0.1333641 -0.18249267 0.20034698 0.22816324 -0.7020765
0.9068108 -0.16285878
