models/zoos/zoo_big/model_225_8494.pth (torch, 4564 bytes, 7 tensors)

fc1.0.weight f4 [10, 2]
000000 c2 97 f0 bf db 30 d8 3f aa 89 30 3f 81 ef 28 3f
       -1.8796313 1.688991 0.6896006 0.65990454
000010 d8 42 81 3f 2b 79 62 3e ad 57 a1 bf 4d a3 c3 3f
       1.0098524 0.22116534 -1.2604882 1.528421
000020 ef 37 06 bf d3 4e cd be ab be d9 3e 5d 84 1e 3f
       -0.524291 -0.400992 0.4252828 0.6192072
000030 06 80 33 3f 8b 3b 0a 3f 86 52 be 3f ed 6c 37 bf
       0.70117223 0.53997105 1.4868934 -0.7165058
000040 80 d8 97 3e 21 fd 24 be a3 80 1d 3e d7 ce ef 3d
       0.29657364 -0.16112186 0.15381102 0.117093734

fc1.0.bias f4 [10]
000000 14 b8 44 bf a4 41 af 3f e7 50 23 3f ae 6c 7f 3f
       -0.7684338 1.3691907 0.6379532 0.9977521
000010 b0 72 30 3f fa 73 a5 3f e1 be dc be bf be 78 bf
       0.68925 1.2926018 -0.4311438 -0.97166055
000020 be 1e 0e 3f f4 b0 15 bf
       0.5551566 -0.58473134

hidden_layers.0.0.weight f4 [10, 10]
000000 ca 41 dc 3f 08 02 3a 3f 94 9a 17 3f 6e 4b b5 bf
       1.7207577 0.7265935 0.5922024 -1.4163644
000010 fa 08 8f 3e 73 6b 31 3f 5e f9 f6 3e 9e 2a c1 bf
       0.27936536 0.6930458 0.48237127 -1.5091131
000020 d7 bd 8c 3e 3b 14 9f be 09 21 86 3f 29 ae c1 3e
       0.27488586 -0.31070122 1.0478832 0.37828186
000030 8e 3b b2 3e 5a 3f 62 bf e4 bc ba bd 1f b6 15 3f
       0.34811062 -0.88377917 -0.09118059 0.5848102
000040 b2 02 08 3f 82 8f 36 be ff e9 e6 3e b5 f8 bc be
       0.5312911 -0.17828181 0.451004 -0.36908498
000050 83 c9 d9 3f 84 b4 37 3f ca a4 c4 3e 7b 4c 04 bf
       1.7014621 0.7175982 0.38406974 -0.516792
000060 0e b7 95 be f5 bc 49 3f 96 99 17 3f 89 31 62 be
       -0.29241222 0.7880395 0.5921873 -0.22089209
000070 c2 19 9c 3e 10 fd cd bc 1c 93 5b be 7e 77 18 bf
       0.30488402 -0.025145084 -0.21442837 -0.5955733
000080 ee 90 00 bf 4c 74 89 be 58 12 95 be d8 71 0c bd
       -0.50221145 -0.2684654 -0.29115558 -0.034288257
000090 06 aa 86 bc 2e 2e 7b be 21 d6 1f be c0 07 48 3d
       -0.016438495 -0.24529335 -0.15609027 0.048835516
0000a0 e7 47 61 be 6b 7b e0 be c4 7f aa bd a4 6b 88 bd
       -0.22000085 -0.4384416 -0.083251506 -0.06661156
0000b0 1d b5 f2 be 94 d4 a5 bc ce a6 c1 be cd 53 0f bc
       -0.47403803 -0.020242967 -0.37822574 -0.008748007
0000c0 40 0b 93 be 10 44 7b 3d 1c 32 17 be 97 e5 10 bf
       -0.2871952 0.061344206 -0.14765209 -0.56600326
0000d0 be 39 69 be be 90 a4 bd 5e 19 09 bf 0c 84 ec be
       -0.22775933 -0.0803542 -0.5355433 -0.46194494
0000e0 4b 3b 9d bd 1c 56 ef be 73 eb df bd 88 d1 11 be
       -0.07677325 -0.46745384 -0.1093358 -0.14240086
0000f0 6b ed 77 be 19 9a cc be 34 a0 8e be 86 19 6d be
       -0.24211662 -0.39961317 -0.278566 -0.23154268
000100 ae 82 cc be 33 57 9b bd 22 52 0a bf a4 bc 00 be
       -0.3994345 -0.07584991 -0.54031575 -0.1257196
000110 06 37 4b be 13 7b 5d be 05 1d 3f bf 2c 3b 17 bf
       -0.19845209 -0.2162898 -0.74653655 -0.59074664
000120 49 56 f1 b9 59 39 84 3f db fd 04 3f f6 fc 04 be
       -0.0004603139 1.0330001 0.5194985 -0.12987122
000130 d2 bd 86 be 14 72 d6 3f 0f 75 94 bd 7f 30 a9 3e
       -0.26316696 1.6753564 -0.0724889 0.33044812
000140 88 97 db bf a7 12 28 bf 2d c9 2a 3f f2 f7 ed 3f
       -1.7155619 -0.6565346 0.6671322 1.8591292
000150 87 84 67 3f 8a e0 f7 be 0e 69 1b 3d ec 93 f2 3f
       0.90436596 -0.48413497 0.037941985 1.8951392
000160 3b 87 2b 3f 23 9e a4 3c c5 dd cb 3f 7c 83 04 3f
       0.6700322 0.020094937 1.5927054 0.5176313
000170 04 b1 ee 3e 42 e1 7d bf 1e 41 1c 3e e6 3d 3f 3f
       0.46619427 -0.9917184 0.15259215 0.74703825
000180 8e f8 31 3f 5c 9a 8b bf 52 18 87 3e 49 2a 15 bf
       0.6951989 -1.0906482 0.26385742 -0.5826765

hidden_layers.0.0.bias f4 [10]
000000 16 18 5f 3b 6a 54 b0 be 8b 63 82 bd d3 86 0e bf
       0.0034041456 -0.34439403 -0.063666426 -0.55674475
000010 a6 66 1d bf 82 9f 05 bf 65 6d d0 be 26 7b 09 3f
       -0.61484754 -0.52196515 -0.4070846 0.53703535
000020 01 61 28 3f 85 0e 7a be
       0.65773016 -0.24419601

hidden_layers.1.0.weight f4 [10, 10]
000000 7b 46 ab 3f db cc 8b 3e c0 df 39 3f 8c 48 e5 3d
       1.3380884 0.2730473 0.7260704 0.11195478
000010 e9 22 93 3d 18 9c 1d bc ae dc 9f 3e fd 44 22 3d
       0.07184393 -0.009619735 0.31223053 0.039616574
000020 88 28 7b bf 6d 7f b1 3f d4 ca 8b 3f 8d 30 5f 3e
       -0.9810872 1.3867012 1.0921273 0.21795864
000030 c5 f6 4f 3f 42 46 aa 3b b7 ad 0d 3f 76 21 66 3d
       0.81235915 0.0051963637 0.5534319 0.056184255
000040 0b dc a6 3e 83 92 0d bf 81 5e 76 bf 15 29 83 3f
       0.32589754 -0.55301684 -0.9623795 1.0246912
000050 cf d8 86 bf a8 28 58 bc 74 68 f4 3d 50 62 83 be
       -1.0534915 -0.013193287 0.11933985 -0.25660944
000060 63 f8 5b 3c 8d f6 62 bd ef 08 36 be 8f e0 27 3f
       0.013425919 -0.05541091 -0.17776845 0.65577024
000070 06 e9 d5 3f c9 e4 0f bf fa ce 0c bf 08 f7 59 be
       1.6711738 -0.56208473 -0.5500332 -0.21285641
000080 ca 26 8a bc 66 47 4a 3e 2e bc 69 3e 58 92 b0 bd
       -0.0168642 0.19753799 0.22825691 -0.08621663
000090 46 1e b4 bd 90 7a bc be 10 af 7a bd 05 99 05 bf
       -0.08794837 -0.36812258 -0.06120211 -0.52186614
0000a0 a3 ab 46 3f d4 21 ec 3e e4 04 07 3f bf 4c 96 be
       0.77605647 0.4611956 0.5274184 -0.29355428
0000b0 b8 fc 89 bd 46 5b 9a be fd 2f 21 be b8 16 a1 be
       -0.067376554 -0.3014776 -0.15740962 -0.31462646
0000c0 ed 6e 44 bf 43 e2 f1 3e ed d7 a3 3f 6c ce e0 3e
       -0.7673176 0.47242936 1.280027 0.43907487
0000d0 92 3b 63 3f 3c 15 9a 3e 24 d3 40 bc 3e 33 72 3d
       0.8876277 0.30094326 -0.01176909 0.0591309
0000e0 ce 2a e6 3d 3a d3 db be dd 26 76 bf be 76 7e 3f
       0.11238633 -0.4293459 -0.9615305 0.99399936
0000f0 f3 64 62 be 8d a1 a2 be 88 c5 40 bd 1d 05 aa bb
       -0.22108822 -0.31763878 -0.04706338 -0.005188598
000100 54 16 13 bf ff 61 e4 bd fd f7 94 be 1e da 6d be
       -0.57455945 -0.11151504 -0.2909545 -0.23227736
000110 44 b8 b9 3d 7f 38 8a be c0 51 07 bf 75 14 97 be
       0.09068349 -0.26996228 -0.52859116 -0.29507795
000120 ea a2 25 3e 7b f8 0d 3c 77 80 7a be 65 54 e5 bd
       0.16175428 0.008665199 -0.24463068 -0.111977376
000130 dd 5a bd be 9b 83 e6 3e a3 2f 92 3f 6d 8d f6 be
       -0.36983386 0.45022282 1.1420788 -0.48154774
000140 09 87 7c bf 0e b0 cf be d9 71 06 3f 99 6d 94 be
       -0.9864355 -0.40564007 0.5251747 -0.28989866
000150 96 aa f5 be 11 a5 6a be 0c d0 7f be be c2 48 3f
       -0.4798171 -0.2291453 -0.24981707 0.78422153
000160 bc f3 d7 3f bd f1 13 bf e0 96 ca bc 19 e7 a0 be
       1.6871257 -0.5779074 -0.024730146 -0.31426314
000170 da ef 90 be 6e d7 9b bd 44 ba fd 3d 86 8c d4 bd
       -0.28307992 -0.07609449 0.12389043 -0.10378365
000180 22 51 3f 3e b0 cb 1d bd 18 f3 41 3d 74 e7 82 3d
       0.18683293 -0.03852433 0.047350973 0.063918024

hidden_layers.1.0.bias f4 [10]
000000 58 89 db be 2b b8 54 be af 95 30 3f b3 d7 0b bf
       -0.42878222 -0.2077338 0.689784 -0.54626006
000010 5d d5 99 be 86 5a 8a be 14 0f 20 bf 41 88 01 3f
       -0.30045596 -0.2702219 -0.6252301 0.5059853
000020 9e fd 38 3f b8 db f5 bd
       0.7226199 -0.12004799

fc2.weight f4 [1, 10]
000000 a7 52 8c 3f 40 1a 4a 3f dd 7e 89 bf 0a fc 25 3e
       1.0962723 0.78946304 -1.0741841 0.16209427
000010 35 f3 5c 3f 51 62 b5 3f 7a 2b 87 3e ef fa 23 bf
       0.86308604 1.4170629 0.26400357 -0.6405477
000020 16 3f 73 bf d4 94 91 3d
       -0.95018137 0.07108465
