models/zoos/zoo_big/model_315_5304.pth (torch, 4564 bytes, 7 tensors)

fc1.0.weight f4 [10, 2]
0.9913724 -0.37823907 1.268302 1.056235 0.48133063 1.1489911 0.052618284 -0.14370951
0.40355507 1.0358117 -1.1623273 -0.7450869 -0.69968224 -1.4330674 -0.6963389 -1.0531766
-0.47690237 -1.5090925 0.27592513 1.0182809
00000000: 95ca 7d3f 8da8 c1be b857 a23f b532 873f
00000010: f870 f63e 2412 933f 4586 573d 9628 13be
00000020: c59e ce3e 7a95 843f 24c7 94bf 04be 3ebf
00000030: 601e 33bf c16e b7bf 4443 32bf 7ece 86bf
00000040: 8c2c f4be f129 c1bf 0f46 8d3e 0757 823f

fc1.0.bias f4 [10]
-0.9894388 -1.0413431 0.5461579 -1.0207896 0.33397824 -0.66325337 0.33908954 -0.99744546
0.45883435 0.33161616
00000000: dc4b 7dbf bb4a 85bf 01d1 0b3f 3ca9 82bf
00000010: 32ff aa3e f9ca 29bf 259d ad3e 9658 7fbf
00000020: 56ec ea3e 98c9 a93e

hidden_layers.0.0.weight f4 [10, 10]
-0.2374814 -1.8384131 0.7811668 0.30921334 0.41817236 1.0117174 -0.47348234 0.38099173
0.071386844 0.70113736 0.67139053 2.0607688 0.02231565 -0.24367388 0.028904183 -0.79949534
0.865813 -0.1322946 1.0245423 0.38714918 -0.27154547 -0.16134676 -0.4991255 0.14679965
0.048354678 -0.288515 -0.18840528 -0.1208279 0.2950863 -0.025524309 0.691955 1.7902125
-0.14252287 -0.58353144 0.5776375 -1.0831169 0.71184933 0.13434353 0.9905003 0.28356028
-0.33039972 -0.44348696 -0.45542476 0.4614662 -0.40386263 1.1947792 -0.077151485 1.5046743
0.4865214 -0.10173431 0.0022384822 -1.7578475 0.34655514 0.30946973 0.74327385 1.1113414
-0.39588556 0.93007153 0.12727262 0.08308377 -0.0852778 -1.6478318 0.7656423 0.41980922
0.48476556 1.1674881 -0.067088954 0.4649473 0.058818888 0.39830962 -0.7212372 -0.6756927
-0.15816732 0.27108097 -0.22849923 0.7685314 -0.31731 0.41334116 -0.34784597 0.14081688
0.29037413 1.2810845 -0.36149675 0.015774183 0.16283208 -0.71600586 0.11470886 0.32820877
0.27549753 0.0905466 0.17065643 -0.101517305 -0.12103851 -0.18082866 -0.17008878 -0.028542297
-0.58953387 -0.57736367 -0.036363453 -0.26773262
00000000: 532e 73be 1f51 ebbf 8cfa 473f 3651 9e3e
00000010: b01a d63e f57f 813f 476c f2be 5911 c33e
00000020: 4433 923d bd7d 333f 40e0 2b3f a3e3 0340
00000030: 4fcf b63c a585 79be 77c8 ec3c baab 4cbf
00000040: eca5 5d3f 3c78 07be 3424 833f 6b38 c63e
00000050: 0208 8bbe 1638 25be 618d ffbe a652 163e
00000060: 8e0f 463d 3db8 93be 50ed 40be 9e74 f7bd
00000070: 8d15 973e 5b18 d1bc f623 313f af25 e53f
00000080: 84f1 11be 5162 15bf 0de0 133f 93a3 8abf
00000090: c23b 363f 5a91 093e 6d91 7d3f d02e 913e
000000a0: 272a a9be b910 e3be 6f2d e9be 4c45 ec3e
000000b0: 15c7 cebe 86ee 983f 9901 9ebd 2b99 c03f
000000c0: 5519 f93e 145a d0bd 80b3 123b 2601 e1bf
000000d0: ad6f b13e d172 9e3e 3247 3e3f 6f40 8e3f
000000e0: 83b1 cabe 2b19 6e3f c153 023e d327 aa3d
000000f0: 21a6 aebd 27ec d2bf 2201 443f 3cf1 d63e
00000100: 3133 f83e 4070 953f ef65 89bd 930d ee3e
00000110: 13ec 703d 3def cb3e 00a3 38bf 32fa 2cbf
00000120: 9df6 21be 20cb 8a3e b4fb 69be 79be 443f
00000130: 7576 a2be 74a1 d33e de18 b2be 4d32 103e
00000140: ebab 943e 94fa a33f 1a16 b9be dc38 813c
00000150: 74bd 263e 294c 37bf 7bec ea3d fb0a a83e
00000160: 030e 8d3e 7f70 b93d 8fc0 2e3e 4ee8 cfbd
00000170: 0ae3 f7bd 262b 39be c12b 2ebe 89d1 e9bc
00000180: b1eb 16bf 1bce 13bf d8f1 14bd 4014 89be

hidden_layers.0.0.bias f4 [10]
0.5428969 0.6831302 -0.32648647 0.05370714 -0.19927385 0.5710544 0.50216156 -0.12684663
0.2471026 -0.30744046
00000000: 4bfb 0a3f 9fe1 2e3f 3c29 a7be 05fc 5b3d
00000010: 720e 4cbe 9f30 123f a98d 003f 15e4 01be
00000020: 7708 7d3e d668 9dbe

hidden_layers.1.0.weight f4 [10, 10]
-0.19356787 1.0871977 -0.07726697 1.0461818 -1.0127019 -0.115657 0.33688405 0.3734066
0.35860032 -0.5194417 -0.26681495 1.0241729 0.26556328 0.9225391 -0.97497463 0.5407158
-0.5598328 -0.1384707 0.38431472 0.20227231 0.7466214 -0.67687225 -0.14045678 -0.37286893
1.4698876 0.692965 0.7673843 0.13858677 -0.3305742 0.39271238 0.50360954 -0.4540979
0.2596112 -0.3411006 0.9531793 0.5211112 0.707975 0.05495898 -0.80492526 0.13649477
0.9518758 -0.7290197 -0.1656567 -0.55567706 1.4516444 0.98757076 0.6476431 0.3081848
-0.32741466 0.49012113 0.07928765 -0.1876735 -0.109666154 -0.25529343 0.16539165 -0.14600965
-0.18286325 -0.100511864 0.07554856 -0.07944794 -0.061858144 0.78161734 -0.14709918 1.0248215
-0.9101007 -0.3711477 -0.042503696 0.20596893 0.39499208 0.015001806 0.89264524 -0.6422981
0.17233934 -0.46561685 1.3084754 0.842834 0.3699989 -0.0840234 -0.33563468 0.008063017
0.5281789 -0.7056282 -0.066035174 -0.44977966 0.78653204 0.87744087 0.75299615 0.3588581
-0.15052387 -0.24648768 0.6126833 -0.5926814 0.013698398 -0.13773564 1.3016003 0.3854138
0.25705665 0.4004034 0.11625436 -0.3292792
00000000: a836 46be 4b29 8b3f 253e 9ebd 49e9 853f
00000010: 37a0 81bf 94dd ecbd 117c ac3e 262f bf3e
00000020: 769a b73e 22fa 04bf f89b 88be 1918 833f
00000030: e9f7 873e 862b 6c3f f097 79bf 5a6c 0a3f
00000040: 3451 0fbf 43cb 0dbe e6c4 c43e 7920 4f3e
00000050: 9422 3f3f 8047 2dbf e7d3 0fbe ade8 bebe
00000060: 4725 bc3f 2766 313f 4c73 443f b1e9 0d3e
00000070: 0641 a9be 9911 c93e 8eec 003f 857f e8be
00000080: c2eb 843e bda4 aebe 8f03 743f 8b67 053f
00000090: d93d 353f ab1c 613d 950f 4ebf 49c5 0b3e
000000a0: 22ae 733f 09a1 3abf e9a1 29be da40 0ebf
000000b0: 7ccf b93f 70d1 7c3f f0cb 253f 66ca 9d3e
000000c0: e5a2 a7be 28f1 fa3e 9061 a23d 7b2d 40be
000000d0: a698 e0bd d2b5 82be 6e5c 293e 8e83 15be
000000e0: 8140 3bbe 2ad9 cdbd 34b9 9a3d 9ab5 a2bd
000000f0: f75e 7dbd 1318 483f 2ba1 16be 5a2d 833f
00000100: 5cfc 68bf 1207 bebe 5b18 2ebd 85e9 523e
00000110: 673c ca3e 23ca 753c 6684 643f a66d 24bf
00000120: b979 303e 5565 eebe 1f7c a73f f8c3 573f
00000130: 7f70 bd3e 7614 acbd 4fd8 abbe bf1a 043c
00000140: bb36 073f 0da4 34bf 733d 87bd 8549 e6be
00000150: 2a5a 493f f79f 603f 5bc4 403f 40bc b73e
00000160: ee22 1abe 4467 7cbe d0d8 1c3f f8b9 17bf
00000170: 3f6f 603c 920a 0dbe d79a a63f f554 c53e
00000180: ee9c 833e ad01 cd3e c416 ee3d 4997 a8be

hidden_layers.1.0.bias f4 [10]
0.43737337 0.43196088 0.6109775 0.1360794 0.63578284 -0.14589699 0.6905377 0.23752958
0.38020414 0.40765053
00000000: 67ef df3e fa29 dd3e 0569 1c3f 6658 0b3e
00000010: aac2 223f 0566 15be 14c7 303f f43a 733e
00000020: 1eaa c23e 92b7 d03e

fc2.weight f4 [1, 10]
0.8043208 0.77879983 -0.8145513 -0.2383724 -0.93056697 -0.31487367 0.7464572 -0.7633582
-0.8217546 -0.6073611
00000000: f8e7 4d3f 6d5f 473f 6f86 50bf e517 74be
00000010: a339 6ebf 1f37 a1be d217 3f3f 716b 43bf
00000020: 825e 52bf 047c 1bbf
