models/zoos/zoo_big/model_225_3593.pth (torch, 4564 bytes, 7 tensors)

fc1.0.weight f4 [10, 2]
00000000: 1e83 67bf a8e7 ce3f 49dc 0a3e 420b 963e
00000010: 27c9 45be c2d6 debe f48c a73f 7fef a3bf
00000020: d761 1f40 2927 b6bf 9507 b8bf 1d4f 79be
00000030: 63fc 42be 68fa 73bc 09d4 6cbe 36b2 07bf
00000040: 9f57 49bd 36e9 07be 2053 cd3e 01c8 243e
-0.90434444 1.6164446 0.13560595 0.29305464 -0.19315015 -0.43523222 1.308989 -1.2807463
2.4903467 -1.4230701 -1.4377314 -0.24346586 -0.1904159 -0.0148912445 -0.2312776 -0.53006303
-0.049155828 -0.13272557 0.40102482 0.1609192

fc1.0.bias f4 [10]
00000000: 5b24 6dbf 07b7 3d3f cc32 ab3f fe42 7abf
00000010: edc6 853f fb85 b23e 14c0 4ebf 6357 c83f
00000020: 0815 4b3d 392a 883f
-0.926336 0.741074 1.3374877 -0.9775847 1.0451332 0.34867844 -0.8076184 1.5651668
0.049580604 1.0637885

hidden_layers.0.0.weight f4 [10, 10]
00000000: 21c4 82be fea5 423e 8d23 25be a69e c4bd
00000010: e4fd 9bbe 3f6b 20be 5831 d63d 70b9 e4bc
00000020: d0fc ff3d 5054 a4bd d611 10bf a311 80bf
00000030: 6c14 5ebe 8bd4 f43f 08ac 003f 83d1 763f
00000040: 2e38 743e f603 863e 5737 60be 946e debe
00000050: 3719 13bf 9eaf 893e a48a 063f aa02 bf3f
00000060: e2ca 3dbf 38f3 813e c0d9 7f3e 7936 543f
00000070: df94 9cbe a9d8 103f feff 88bd e055 f0be
00000080: 0b72 1dbf d2f2 173e b7b2 aabe e0d2 21be
00000090: 0034 033a 7ef4 1cbf 6151 c6be c8cc 96bd
000000a0: 1c1d c63f 881b 0b3f 113e 96be 2590 f6bf
000000b0: 35c5 eb3f b9ad 8e3f cade 4cbe 454c 3bbf
000000c0: 23c8 223e b333 953e ea09 34bd 3f21 38bc
000000d0: ebeb 14bf a6e3 6b3e 75a2 a7be b824 173e
000000e0: d83e d7bd 9666 10bf 04ca abbe f1ca 67be
000000f0: cd62 d7bd ba23 87be 802a 8dbc 2e9e 483f
00000100: 53de 6bbf 68c7 bdbd 0b7e b83d cc0c f2bd
00000110: ffd0 66be 1023 abbe b2e5 003e d1bf e9bd
00000120: 0103 ecbe e575 3ebe 03a8 e8be 4b7f 0fbf
00000130: ae2a 3dbe 112b 49bd 90e1 e5be 6dff d5be
00000140: 3853 bcbc de4b 04bf 52b0 8ebe 96ad 9c3e
00000150: 1365 09be cb0f 63be d9df 3dbe 0bb5 bb3e
00000160: c018 dbbe 57ce 12be 1eb5 ebbe 15d9 f43e
00000170: aaa3 493f 5188 cc3f 4583 67bf 771a d73d
00000180: a08b e33d f4a2 2d3f 79fa 10be 38d3 243f
-0.2554026 0.19008633 -0.16126843 -0.09600572 -0.3046714 -0.15665911 0.1045863 -0.027920455
0.12499392 -0.08023894 -0.56277215 -1.0005382 -0.21687478 1.9127363 0.502625 0.9641344
0.23849556 0.26174897 -0.2189611 -0.4344374 -0.5746035 0.26891798 0.525553 1.4922688
-0.741377 0.25380874 0.24985409 0.8289562 -0.3058233 0.565806 -0.06689452 -0.46940517
-0.6150214 0.14838722 -0.33339474 -0.15803099 0.0005005002 -0.61310565 -0.38733962 -0.07363278
1.5477633 0.54338884 -0.29344228 -1.926274 1.8419558 1.1146766 -0.20006862 -0.73163253
0.15896659 0.29141006 -0.043954767 -0.011238395 -0.5817248 0.2303606 -0.32741132 0.14760101
-0.10510033 -0.56406534 -0.33552563 -0.2263601 -0.10516892 -0.26394445 -0.01723218 0.78366363
-0.92136115 -0.09266549 0.09008416 -0.11818847 -0.22540663 -0.33425188 0.12587622 -0.11413539
-0.46096042 -0.1859966 -0.45440683 -0.5605361 -0.18473312 -0.049113337 -0.44898653 -0.41796437
-0.0229889 -0.51678264 -0.27868897 0.30601186 -0.13417463 -0.22173993 -0.18542422 0.36661562
-0.4279232 -0.14336525 -0.4603662 0.4782187 0.78765357 1.59791 -0.90434676 0.10503095
0.11110616 0.6782677 -0.14158048 0.64384794

hidden_layers.0.0.bias f4 [10]
00000000: e236 8abe da43 0ebf f976 1f3f 108d 8dbe
00000010: c551 343e eed9 ebbe 31e3 3dbe cdd0 d1be
00000020: 8dfa dfbe 8478 da3e
-0.26994997 -0.55572283 0.6229091 -0.27646685 0.17609318 -0.46064705 -0.18543698 -0.40979615
-0.43745843 0.4267007

hidden_layers.1.0.weight f4 [10, 10]
00000000: 4b12 9dbe 3bb2 80bf 4eaf 223e e11a 233e
00000010: 32ea d93f b7c6 4c3e 3b47 1b3f 8e2c 88be
00000020: f3c0 213d 9195 81bd 2004 163c 3049 ff3c
00000030: 3c36 fbbd 80f9 6d3b 0cb1 d4bd 84be d23d
00000040: 953c 89be d0b1 45be aa23 1c3e 3879 4abe
00000050: 4a24 03be fe68 e63f ef38 213f 415a 4ebe
00000060: 8eda 5bbf cbd9 87bc 7f06 1fbe 6000 293e
00000070: 36cc 0dbe 9734 343f 6ea6 a7bd 5cab ee3f
00000080: 921f 403f 6f97 cabe d0ae b9bf c2bd ecbe
00000090: 16e6 6e3e 65f3 943d 6a10 1c3e 3ff6 523f
000000a0: 3e9a 56be 67bc 29be e093 a4bd 429c 3c3e
000000b0: 6c6c f5be b027 91bc 7347 e3be 99db 873e
000000c0: acd4 1a3e 0bb9 ecbd 18c8 1cbd 460d e73f
000000d0: aa44 073f 4ce6 b4be 729c 73bf 779c f1be
000000e0: ddc8 00be fb60 093f 5f5e 9cbe 7310 3d3f
000000f0: 10ed b13c a458 9cbe 1e6f 3abe 6116 9dbe
00000100: 2e03 d4be ae82 423e 6b6b 9bbe 404b da3d
00000110: c01f e63b caf3 6cbe 0c70 f23d af01 8e3e
00000120: bdae 13be 2df1 843e a46b 55be b654 ffbd
00000130: 002e 7bbe 9837 003e b723 04be 66d8 09be
00000140: c078 80bd ad72 99be 6cd2 19bf a77f b53d
00000150: 9078 6dbd 2104 923e 43b8 e3be 4d7c bebe
00000160: e094 983e 668b bcbd 059b 1fbe 06fe 7b3e
00000170: 4eb2 00bf b9d9 9dbe 6cd5 88be 806c 1f3b
00000180: 13a1 c5be 4c69 283e dcd6 a13d a073 91be
-0.3067802 -1.0054392 0.15887186 0.15928222 1.7024596 0.19997679 0.60655564 -0.26596493
0.03949065 -0.06327356 0.009156257 0.031162828 -0.12266204 0.0036312044 -0.103853315 0.10290244
-0.26804033 -0.19306111 0.1524798 -0.19772804 -0.12806812 1.8000791 0.629775 -0.20151617
-0.85880363 -0.016583344 -0.15529822 0.1650405 -0.13847432 0.70392746 -0.08186041 1.8646045
0.7504817 -0.3956866 -1.4506474 -0.46238524 0.23329958 0.07272986 0.15240636 0.8240699
-0.20957276 -0.16575776 -0.080360174 0.18418983 -0.47934282 -0.01771912 -0.4439045 0.26534727
0.1512019 -0.11558732 -0.03827676 1.8050926 0.5283915 -0.35331953 -0.9516059 -0.47189686
-0.12576623 0.53663605 -0.3054075 0.73853225 0.021719486 -0.30536377 -0.1820645 -0.30681136
-0.41408676 0.18995163 -0.3035539 0.10658884 0.007022828 -0.23139873 0.118377775 0.2773566
-0.14422126 0.25965253 -0.20841843 -0.12467329 -0.24529266 0.12521207 -0.12904249 -0.13461456
-0.06273031 -0.29970303 -0.60086703 0.088622384 -0.057976305 0.28518775 -0.44476518 -0.3720421
0.29801083 -0.09206276 -0.15586479 0.24608621 -0.5027207 -0.30830172 -0.26725328 0.0024326146
-0.38599452 0.16446418 0.07902309 -0.28408527

hidden_layers.1.0.bias f4 [10]
00000000: 990d 733f ea71 70be 28c2 81be 709b dd3e
00000010: 0bfa 08bf 4121 233e cf43 c2be 406b 32bc
00000020: 1989 63be 5e61 44be
0.94942623 -0.23480955 -0.25343442 0.43282652 -0.53506535 0.15930654 -0.3794236 -0.010889828
-0.22220267 -0.19177768

fc2.weight f4 [1, 10]
00000000: f6a1 8d3f 2cfb b5bd 5738 40bf dd1d 8ebf
00000010: 0083 7abe 8d57 81bf 4c3e febd 5ef6 5c3e
00000020: f79c 60be 94f2 333e
1.1065052 -0.08885798 -0.7508597 -1.1102864 -0.24464035 -1.0104843 -0.12414226 0.21578357
-0.21934877 0.17573005
