models/zoos/zoo_big/model_225_4170.pth (torch, 4564 bytes, 7 tensors)

fc1.0.weight f4 [10, 2]
000000 c7 59 8a bf d4 ca 99 be 32 ae b1 be 0b 50 1b 3e
       -1.0808648 -0.30037558 -0.34703213 0.15167253
000010 00 ad a2 3c 44 6e 34 be 58 15 b7 3f 48 84 b0 3f
       0.019857883 -0.17620188 1.4303389 1.3790369
000020 40 d9 a0 bf 44 b3 c7 3e c7 e1 3e 3f b9 26 89 bf
       -1.25663 0.39003956 0.7456326 -1.0714942
000030 24 b9 77 3d 21 db 96 be f5 22 d9 3f 22 86 24 bf
       0.0604793 -0.29464057 1.6963793 -0.6426717
000040 33 1f 35 bf 86 98 d0 be 47 c2 30 bf ca 40 d2 3f
       -0.7075073 -0.40741366 -0.69046444 1.6426022

fc1.0.bias f4 [10]
000000 f0 26 c7 3d 71 20 3a 3f d1 9a 0c bf 12 d3 c0 bf
       0.097242236 0.7270575 -0.5492373 -1.5064414
000010 20 b5 54 3f 3f 25 25 bf c9 74 67 bf d3 81 23 3f
       0.83088875 -0.6450996 -0.90412575 0.6386997
000020 20 7b 73 3e 7f a4 85 bf
       0.23777437 -1.0440825

hidden_layers.0.0.weight f4 [10, 10]
000000 db 9c 26 3f 5f f5 33 3e 52 e1 5e be bd 47 bd 3f
       0.6508309 0.1757407 -0.2176564 1.4787518
000010 da 4f 34 bf 39 a1 50 bf 57 18 06 3e d2 3c 7a 3f
       -0.70434344 -0.81496006 0.13095222 0.97749054
000020 0c 43 ad 3e 98 1d 88 3f c1 2e 45 3e 95 c6 96 bc
       0.33840215 1.0634031 0.19256116 -0.018405238
000030 40 4d 56 bd 33 f7 9e be e8 f4 84 3f 11 fd 77 3f
       -0.052319765 -0.31047973 1.038724 0.96870524
000040 1b dd a4 be 59 8b 25 3e 63 2b d5 bd 7d f4 86 bf
       -0.3219994 0.16166438 -0.10408666 -1.0543362
000050 d6 c5 89 3e e8 dc 3d bf b3 4f 89 3e cc ea dd 3c
       0.2690875 -0.741652 0.26818618 0.027089499
000060 fa 47 5e 3f 5e df e4 3e 21 fe cd be 4c 5f 67 bd
       0.8682858 0.44701666 -0.40232947 -0.056487367
000070 6f 45 bd 3e 91 aa c6 bf b8 4f 54 3f 37 2b cc 3c
       0.36967036 -1.5520803 0.8293414 0.02492295
000080 b2 0d e8 bd f2 1b 9a 3f 4a f0 c8 be 0b 98 f3 be
       -0.11330737 1.2039778 -0.39245826 -0.47576937
000090 42 6a 30 be 14 a7 19 3f 59 01 57 3f 19 ed 60 3f
       -0.17228034 0.60020566 0.8398643 0.8786178
0000a0 e9 d9 4f bd 0f 68 0c be 40 6c 8d 3d c8 2d 01 bf
       -0.050744925 -0.1371157 0.06905413 -0.5046048
0000b0 32 b2 02 3f 68 62 89 be 9a 58 9b 3e 4d 52 2c be
       0.51053154 -0.2683289 0.30341035 -0.1682827
0000c0 ab 62 26 3e 6d 32 42 bf 32 35 5d 3f 98 ec a5 bf
       0.16248576 -0.75858194 0.86409295 -1.2962828
0000d0 ae dc f3 bd 2c ec 9e 3f 2d 5b 17 3e 65 c1 86 3f
       -0.11907326 1.2415824 0.14780875 1.0527769
0000e0 58 df 58 bd 06 69 f2 3e 82 50 51 3f bb 3f 1d bf
       -0.052947372 0.47345752 0.8176347 -0.6142537
0000f0 4c 83 f0 3e b5 ac 6a bf f8 7d 47 3d 6a d8 f6 3f
       0.46975172 -0.9166978 0.048704118 1.9284794
000100 ef 6e cd 3e 6d 79 84 3f 68 81 71 3d 17 0b 70 3f
       0.40123698 1.0349556 0.058961302 0.9376692
000110 82 25 55 3f 6a a5 6f 3f 11 c5 0f 3f 4e 39 ce 3e
       0.8326036 0.93611777 0.56160074 0.40278095
000120 bb 28 80 be 7b ef 05 40 35 00 04 bf 98 a2 12 bf
       -0.25031075 2.0927417 -0.51562816 -0.5727935
000130 d3 a0 5d 3e 83 b5 37 3f 42 77 91 3e 1b 9a 66 3f
       0.21643381 0.7176134 0.284113 0.90078896
000140 57 6a 3c 3f ce 2b 15 3e fe 6e e1 bd 44 fe cb 3e
       0.7359976 0.14567491 -0.11007498 0.39842427
000150 f1 56 9a be b5 b2 d5 be 72 e6 16 bf a7 2e 35 3e
       -0.30144456 -0.41737905 -0.5894538 0.17693578
000160 4e b4 1c 3f 5d 3c 5c 3f 4c 10 04 be 76 a4 1b bf
       0.61212623 0.8602961 -0.12896842 -0.6079782
000170 9d 8c 36 be 80 16 0f be 47 33 15 bf 43 ff 19 bf
       -0.17827077 -0.13973427 -0.5828137 -0.60155123
000180 8d 1b 31 be 08 87 81 be 65 6e 85 bd 2e 91 6c 3e
       -0.17295666 -0.25298333 -0.06515197 0.23102257

hidden_layers.0.0.bias f4 [10]
000000 f8 2c 81 3e b2 41 1e 3f 61 e2 05 3f b1 43 b0 bb
       0.2522962 0.61818993 0.5229855 -0.005379163
000010 49 cc 70 3e 4a 8c bc 3b a2 7a 30 3e 90 0c ca 3e
       0.23515429 0.0057540284 0.1723428 0.3946271
000020 1a dd 30 3e 1a f4 a0 be
       0.17271844 -0.31436235

hidden_layers.1.0.weight f4 [10, 10]
000000 19 a6 e7 be 8c 93 04 3f 66 6a d3 3e be a9 af be
       -0.4524391 0.5178764 0.41292113 -0.3430919
000010 9b fa 6c bd 61 e7 da 3e 17 ef 14 3f 57 11 02 bf
       -0.057856183 0.42754653 0.5817732 -0.5080771
000020 45 41 14 bf 83 0b 0a bf 84 41 84 bf ca 33 47 3f
       -0.57912093 -0.53923815 -1.0332494 0.778134
000030 5c f3 2a 3f a2 0f 12 bf 9b 48 f3 3d 3e 73 78 3f
       0.66777587 -0.57055104 0.11879083 0.97050846
000040 a9 f7 ab 3e 85 00 3d bf 5b 54 32 bf 9a 39 09 3c
       0.33587387 -0.7382892 -0.69659966 0.00837555
000050 7b 00 be be ae 3c 01 bf ff c5 d5 be 81 65 36 bc
       -0.37109742 -0.50483215 -0.41752622 -0.011132599
000060 2c 05 c3 3d 2f 2c 9e 3d 4b 61 b1 3d 63 0b 7c be
       0.09522471 0.07723271 0.08661135 -0.24613719
000070 71 d9 1b be 00 e4 07 bb dc cf d7 be c1 7c 36 be
       -0.15219666 -0.0020735264 -0.42150772 -0.17821027
000080 84 b1 11 bf 33 df 89 3e 9a 01 58 be 20 c1 11 be
       -0.5691149 0.269281 -0.21094361 -0.14233828
000090 9b bb 94 3e 1e a1 50 be 24 fc 0b bf c8 52 4d 3d
       0.29049382 -0.20373961 -0.5468161 0.050127774
0000a0 e6 e7 b6 be 86 29 3e 3f b1 73 fb 3e f9 2a 6f bf
       -0.357238 0.7428211 0.49111703 -0.93424946
0000b0 40 18 fb 3e 8b 3b 6c 3f 26 48 b9 3e 1b 40 3a bf
       0.4904194 0.92278355 0.36187857 -0.7275407
0000c0 24 26 13 bf 16 72 a9 3e 04 2d 32 3f 8d 1d ca 3e
       -0.5748007 0.33094853 0.6959994 0.3947567
0000d0 b6 0c 13 3e b3 55 fa 3e c1 98 dc 3e f0 ac a4 3e
       0.14360318 0.48893508 0.43085292 0.3216319
0000e0 de ff 0b 40 37 8c 44 3f e7 49 4e 3e 50 c5 81 be
       2.187492 0.7677645 0.20145379 -0.2534585
0000f0 b3 fd 3b bf 58 0e 4c 3f fd b4 7e 3f b7 59 45 bf
       -0.7343399 0.79709387 0.99494916 -0.7709002
000100 8e 73 6b bd 40 6f 61 3f fc 22 ca 3e d4 88 0d bf
       -0.05748325 0.8806038 0.39479816 -0.5528691
000110 86 bf 4b bf e5 ae 82 3e b6 38 19 bf 10 16 2f 3f
       -0.79589117 0.2552406 -0.5985216 0.6839304
000120 ef fe 25 3e 0f 75 05 bf ac fc 2c 3e 7f 30 61 3f
       0.1621053 -0.5213174 0.16893262 0.87964624
000130 8b 8d a3 3d b6 ea 6c be 25 52 6e be df 95 82 3e
       0.079859816 -0.2313641 -0.23273523 0.25504968
000140 f8 83 45 bf 7f b7 31 3f 0a 01 66 3f c9 51 16 bf
       -0.77154493 0.6942062 0.89845335 -0.58718544
000150 56 2c f5 3d 6f 49 48 3f c9 51 4b 3f 29 d9 15 bf
       0.11971347 0.7823705 0.7942167 -0.58534485
000160 c8 fc 51 bf c7 04 b6 3e f3 9c 5f bf ac 46 41 3f
       -0.8202634 0.3555052 -0.8734886 0.7549846
000170 ea 3b 2b 3f 1d 7e 65 bf 20 97 eb 3e 73 e2 45 3f
       0.66888297 -0.8964556 0.46013737 0.7729866
000180 90 c6 45 3e 8e aa a8 be 66 29 da be 62 24 87 3e
       0.19314027 -0.32942623 -0.4260971 0.26394945

hidden_layers.1.0.bias f4 [10]
000000 36 8c f3 3d 52 67 45 3f d5 aa 0b bf cb d9 81 be
       0.118919775 0.7711078 -0.54557544 -0.25361475
000010 bc 0c ac 3e 2b 06 e9 3e 4d a8 67 3e 1d 9f b1 3e
       0.33603466 0.45512518 0.22622795 0.34691706
000020 7f 42 8b 3e b7 b0 1b 3f
       0.2719917 0.6081652

fc2.weight f4 [1, 10]
000000 be ac cc be c9 ef 51 bf 3b 8a 0f be ce b0 46 be
       -0.39975542 -0.8200651 -0.14017574 -0.19403383
000010 7b 23 73 bf d3 63 24 3f 75 0f 75 bf 5e b8 26 bf
       -0.94976014 0.6421482 -0.9572671 -0.6512507
000020 fc 75 60 bf 37 1e 2c bf
       -0.8768003 -0.67233604
