models/zoos/zoo_big/model_0_6959.pth (torch, 4476 bytes, 7 tensors)

fc1.0.weight f4 [10, 2]
00000000: 28ce 963d 4784 a03f d8c2 6cbe ceec e83d
00000010: bd8f cc3f f1d1 bd3e 7417 5a3e ecb0 3c3f
00000020: 3095 7d3d e2a2 7e3f bcac c43f 0e8f 0a3e
00000030: 84eb a53e b80c 8abf 1208 c73e 56f2 81bf
00000040: 8f91 af3f c395 81be 275e 95bf 0fa3 033f
0.0736354 1.2540368 -0.23121202 0.11373292 1.5981365 0.37074235 0.21298009 0.7370746
0.061909854 0.9946729 1.5365214 0.13531134 0.32406247 -1.0785131 0.38873345 -1.015208
1.3716296 -0.25309572 -1.1669358 0.5142068

fc1.0.bias f4 [10]
00000000: 4139 24bf fc16 fabe 7eae 153f 20ac 3d3f
00000010: a116 06bf b901 4fbf ccfc db3e 9679 3dbf
00000020: 635c 33bf 5b7c 63bf
-0.6414986 -0.4884566 0.5846938 0.74090767 -0.5237828 -0.80862004 0.42966306 -0.7401365
-0.70062846 -0.88861626

hidden_layers.0.0.weight f4 [10, 10]
00000000: b228 733f fabd 68bd 92de 8d3f bc9a ee3e
00000010: 9db1 293f 8635 9ebf 74b3 3a3d 0d9c 6abf
00000020: a9d9 39bf cb6b b73f a0ed 6fbe 9652 6e3e
00000030: ee4d c0be 059d 1bbe 419f fbbd 69be 893f
00000040: 2866 163f 5d67 8d3f 8044 853f 7f2a e9be
00000050: 444c 213f 890e bc3e 50e1 983f ee88 b83d
00000060: 60db 983e 47ba c0bf 8717 1d3f 4c39 32bf
00000070: de6a fcbe 827e 693f 779e 943e b2fd d1be
00000080: 77c4 513f 8c5d 013f 0682 863e f63a 50bf
00000090: 66c4 c23e 12bd 32bf 596e 293d c7c0 b33f
000000a0: 0dbe 48be acfe e4be 7ec0 03bf 9443 18bf
000000b0: f66d 6a3e 412f 93be dd9e a2be c17d 62be
000000c0: 0d5e 07bd 9ac5 77be 24e8 8b3e 9962 54bc
000000d0: 2866 423f b531 b53e 9429 1f3f 2984 77bf
000000e0: bdaa 3f3f f453 633e fbc3 a03e 121c bc3f
000000f0: cd7d afbe b574 e43e 87e2 07bf 2971 28be
00000100: 90e2 283f 2ab6 a93f 5c02 143e 214a 223f
00000110: adb5 1d3f f7ff 06bf c33e 13bf 7f03 003f
00000120: d6ed 29bf c80e 133f 2ae4 4abd 89bd 923f
00000130: 96c3 fa3d 7bec 943f daa0 8c3f 7242 a2bf
00000140: 1578 11be d1d3 073f 50a8 7abf 6e76 0c3f
00000150: d2ee 2dbe 19a1 b03f ebf4 aa3e 715e 563f
00000160: e305 853f 66e1 52bf 4239 063e 882d c6be
00000170: 8831 13bf d42b 29be d933 0dbe e080 333e
00000180: d30d d0bd 5b29 d0be d58e 8abe fb42 36be
0.9498397 -0.0568218 1.1083548 0.46602428 0.6628664 -1.2360084 0.045581296 -0.91644365
-0.7259775 1.4329771 -0.2343049 0.23273692 -0.37559456 -0.15196617 -0.12286235 1.0761234
0.5874963 1.1047169 1.041153 -0.45540234 0.63007 0.3672984 1.194376 0.09010492
0.2985487 -1.5056847 0.61364025 -0.6961868 -0.49300283 0.9120866 0.2902715 -0.41013867
0.81940407 0.50533366 0.26271075 -0.8133997 0.38040465 -0.6981975 0.041365 1.4043206
-0.19603749 -0.4472555 -0.51465595 -0.59478116 0.2289351 -0.2874699 -0.31761828 -0.22118284
-0.03304868 -0.24196473 0.27325547 -0.012962961 0.7593713 0.35389486 0.6217282 -0.96686035
0.748699 0.22199994 0.3139952 1.4696066 -0.34275666 0.4462029 -0.5308003 -0.16449417
0.65970707 1.3258717 0.14454025 0.6339436 0.6160534 -0.5273432 -0.5751764 0.50005335
-0.66378534 0.5744443 -0.049534 1.1464092 0.12244336 1.1634668 1.0986588 -1.2676528
-0.14205964 0.5305758 -0.97913074 0.5486821 -0.16985634 1.3799163 0.33389983 0.83737856
1.0392421 -0.8237518 0.1310778 -0.38706613 -0.57497454 -0.16520625 -0.1378931 0.1752963
-0.10158887 -0.40656552 -0.27062097 -0.17798989

hidden_layers.0.0.bias f4 [10]
00000000: 78dd 3bbd adb9 aabd 4a86 97be 085f d03e
00000010: fc7a 81be c2fc 153f 0cf1 963e d199 6e3f
00000020: 46e0 843f 2ffe 05bf
-0.045865506 -0.08336196 -0.29594642 0.40697503 -0.25289142 0.585888 0.2948078 0.93203455
1.0380943 -0.5234098

hidden_layers.1.0.weight f4 [10, 10]
00000000: 2868 893f c709 aabe 8771 813f 2a60 193f
00000010: ac96 6bbe 9bbd 513f a403 95bd 4abd 10bf
00000020: 2197 0abf a5ed 49be 5210 38bd 3017 c8bd
00000030: b3c2 eebe 9c56 cfbe b629 e6bd 61e3 e1be
00000040: ae8f 4abe 2519 05be f131 dabe eb92 3bbe
00000050: d261 bdbe a86f 85be cce4 30be 7803 e6bc
00000060: 30e1 87be 29b0 14bf 6861 4dbd 5420 a63d
00000070: 0515 04bf 0cbc cd3d 520f c5be 75d5 6e3f
00000080: 9e42 24bf 2555 83be af2a c23e dbb9 d23e
00000090: 00ee 2f3f 2a7d 823f b8d3 743f c24c 043e
000000a0: acf5 b93e 2fd3 be3d 380f 543f 2018 d03e
000000b0: b5b0 c0be 7860 1c3f 8245 4dbe 1941 25bf
000000c0: ab7e 2ebf a954 b0bd a0c6 4a3f ac28 aebd
000000d0: d667 813f e6c5 cd3e 8beb b6be 83c6 5d3f
000000e0: 55a8 71be 8680 33bf 23e4 61bf 4428 a8bd
000000f0: c909 1bbf 6818 273f 10bb 80bf d00a ccbd
00000100: c822 9c3e 895b 5b3d a2c9 f53e fdbb a13f
00000110: 791f 633f 0336 7f3c 6b83 25bf 448c 423f
00000120: a0fe a3bf 7a1e 6fbe 1f2a 7b3e 84cb a53e
00000130: 59c7 df3e fb54 663f 7f74 833f 3740 053f
00000140: 5768 503f 11f5 6cbc 8dda 083f 9c3a ea3e
00000150: 0688 4abe 369c 063f 5fc5 f8bb 5a4b 1ebf
00000160: 3167 37bf dd3b 0fbe e39b cfbe 7a3d cb3e
00000170: 141d 0fbf 808b 60bd f43a f93b 2be0 77be
00000180: 6fdd 40bc 1280 283f f483 5f3f 1b7d e43e
1.0734911 -0.33210585 1.0112771 0.5991236 -0.23006696 0.8192994 -0.07276085 -0.5653883
-0.54136854 -0.1971956 -0.04493744 -0.09770048 -0.4663292 -0.40495765 -0.112384245 -0.4411879
-0.19781372 -0.12997873 -0.42616227 -0.18317764 -0.36988693 -0.2606175 -0.17274779 -0.028077826
-0.26538992 -0.580813 -0.050141722 0.08111635 -0.51594573 0.10045633 -0.3848825 0.9329446
-0.6416415 -0.25650898 0.3792319 0.4115742 0.68722534 1.0194447 0.9563556 0.12919906
0.36320245 0.09317624 0.8283572 0.40643406 -0.37634817 0.610847 -0.20046046 -0.64552456
-0.6816203 -0.08609898 0.7920933 -0.08503851 1.0109813 0.40190047 -0.3572658 0.8663103
-0.2359937 -0.70117986 -0.88238734 -0.08210805 -0.60561806 0.65271616 -1.0057087 -0.09963
0.30495286 0.05355409 0.48005396 1.2635494 0.887199 0.015576842 -0.6465365 0.7599528
-1.281208 -0.2335147 0.24527787 0.32381833 0.43706778 0.8997342 1.0269927 0.5205111
0.8140921 -0.014462725 0.5345848 0.4574784 -0.19778451 0.5258211 -0.007591888 -0.6183373
-0.7164183 -0.1398768 -0.4054862 0.3969534 -0.55903745 -0.054820538 0.0076059047 -0.24206607
-0.011771544 0.6582042 0.8731072 0.44626698

hidden_layers.1.0.bias f4 [10]
00000000: c6fa 033e a983 83be 0448 4dbe ee5b a03f
00000010: f98d a83e dedc 163e 8013 573f a799 6b3f
00000020: 54b4 f53e 0dd8 823f
0.12888631 -0.25686386 -0.20047003 1.2528055 0.32920817 0.14732692 0.8401413 0.9203133
0.47989142 1.0222183

fc2.weight f4 [1, 10]
00000000: 5f94 75bf 9ebf 5bbe 8650 b1bc db83 5f3f
00000010: 150d 2ebf cbe8 2ebf e323 5e3f 2f6f 963f
00000020: 4797 21bf 9df9 c43e
-0.9592952 -0.21459815 -0.021644842 0.8731057 -0.6798871 -0.68323964 0.8677351 1.175268
-0.63121456 0.3847169
