models/zoos/zoo_big/model_270_6853.pth (torch, 4564 bytes, 7 tensors)

fc1.0.weight f4 [10, 2]
0	0x3f1b6927	0.60707325
1	0xbfb3f1a0	-1.4058113
2	0x3eaa9bc4	0.33321965
3	0x3e5c5b7c	0.21519274
4	0xbd6c1f09	-0.057646785
5	0xbf8900d1	-1.0703374
6	0x3c59bda8	0.0132898465
7	0x3f72222e	0.94583404
8	0xbf079bfa	-0.52972376
9	0xbf918424	-1.1368451
10	0x3f131872	0.57459176
11	0xbfabee3f	-1.3432082
12	0xbf208df3	-0.627166
13	0xbe3cdf5c	-0.1844458
14	0xbdf088a1	-0.1174481
15	0xbcee2a5a	-0.02907293
16	0x3e31cc28	0.17363036
17	0x3ffea182	1.9893038
18	0xbe966f98	-0.29382014
19	0xbe0af4d6	-0.1356996

fc1.0.bias f4 [10]
0	0xbf75281e	-0.9576434
1	0x3f586657	0.8453116
2	0xbf0d4521	-0.5518361
3	0x3f455903	0.77088946
4	0xbf514b5c	-0.81755614
5	0x3f318341	0.693409
6	0x3fa45f70	1.2841625
7	0x3f8d3cc6	1.1034172
8	0xbf82d853	-1.0222267
9	0xbee46018	-0.44604564

hidden_layers.0.0.weight f4 [10, 10]
0	0xbfc2642d	-1.5186821
1	0x3ec7dde9	0.39036492
2	0xbf303755	-0.6883443
3	0xbd6ba53e	-0.057530634
4	0xbf8e8bb3	-1.1136383
5	0x3fd04180	1.6269989
6	0xbdb6b40a	-0.089210585
7	0x3eb96983	0.36213312
8	0x3f843fe3	1.0331997
9	0x3c7bb86b	0.015363793
10	0x3fb49e9a	1.4110901
11	0x3f298bd4	0.66228986
12	0x3f53f8b4	0.82801366
13	0x3f01da82	0.5072404
14	0x3f3e3d7c	0.7431257
15	0xbe1fbf9d	-0.15600438
16	0x3f0e37d8	0.5555396
17	0x3f43d54b	0.76497334
18	0xbdadf033	-0.0849308
19	0x3ed9cf1d	0.42540827
20	0x3e618eae	0.22027084
21	0xbdac1c0d	-0.08403788
22	0xbba1a8c0	-0.0049334466
23	0xbe8a5a3f	-0.27021977
24	0xbdebaa0e	-0.11507045
25	0x3e0f1807	0.1397401
26	0xbead55f4	-0.3385464
27	0xbecbd590	-0.39811373
28	0xbca78870	-0.0204508
29	0x3e72b6a9	0.23702492
30	0x3f59684f	0.8492479
31	0xbe0d4c14	-0.13798553
32	0x3e3adc32	0.1824806
33	0x3f00d691	0.503274
34	0x3f250c4c	0.6447189
35	0xbf9f53c7	-1.2447442
36	0x3e4e7332	0.20161131
37	0x3f2bd0ac	0.67115283
38	0xbf330915	-0.69935733
39	0x3e5d2aef	0.21598409
40	0xbe98d078	-0.2984655
41	0xbd307cb0	-0.04308766
42	0xbdfdcd3e	-0.123926625
43	0xbe4da2f3	-0.20081691
44	0xbe094065	-0.13403471
45	0x3d8799cc	0.06621131
46	0x3d512ca8	0.05106798
47	0xbe91da39	-0.28486803
48	0xbcb4a000	-0.02204895
49	0xbde5ef54	-0.11227289
50	0x3f93ad8e	1.153734
51	0x3dddacfa	0.10824008
52	0x3f43164b	0.7620589
53	0x3f26ce8e	0.6515893
54	0x3f9a8845	1.2072836
55	0xbfa90883	-1.3205723
56	0x3edd673b	0.4324282
57	0x3f4c1c4a	0.79730666
58	0xbf9be22f	-1.2178401
59	0x3eb2e782	0.3494225
60	0x3fe902db	1.8203996
61	0x3e6aabc1	0.22917081
62	0x3f484228	0.78225946
63	0x3f15c12c	0.5849788
64	0x3f94b29c	1.1617007
65	0xbf137c97	-0.57611984
66	0x3eee3be2	0.46530062
67	0x3e8e6a8e	0.2781567
68	0xbf662376	-0.8989786
69	0xbe12fd25	-0.1435438
70	0xbec14fdf	-0.3775625
71	0xbf090699	-0.5352569
72	0xbdb5480a	-0.08851631
73	0xbd24ce6b	-0.040235918
74	0xbe510bf2	-0.20414713
75	0xbe17efbc	-0.14837545
76	0xbed8ac25	-0.42318836
77	0xbee86688	-0.45390725
78	0x3e2d4dbd	0.16924186
79	0xbf17bc2b	-0.59271497
80	0xbfa292c7	-1.2701043
81	0x3f018525	0.5059379
82	0xbf2c7ace	-0.67374885
83	0xbea0a0f4	-0.31372797
84	0xbf82382e	-1.0173395
85	0x3f8f0ec9	1.1176387
86	0xbe1c2c2c	-0.15251225
87	0x3ed4f307	0.41591665
88	0x3fbaa1a7	1.4580582
89	0x3e3a6fd0	0.18206716
90	0xbe705aac	-0.23472089
91	0xbe3fc91e	-0.18729064
92	0xbe11a309	-0.14222349
93	0xbe7baf5c	-0.24578613
94	0x3e85ea61	0.2615538
95	0xbe8d4773	-0.27593574
96	0xbe03b3b1	-0.12861516
97	0xbe923988	-0.28559518
98	0x3e04ee7e	0.12981603
99	0xbdcfbf30	-0.10143888

hidden_layers.0.0.bias f4 [10]
0	0x3f1cd27b	0.6125867
1	0x3ef4a7d8	0.47784305
2	0xbec4b988	-0.384228
3	0x3e920216	0.28517216
4	0x3e420a1a	0.18949166
5	0x3f8064c1	1.0030748
6	0x3e7c5317	0.24641071
7	0xbe828184	-0.25489438
8	0x3f4baefe	0.7956389
9	0xbdae807c	-0.085206

hidden_layers.1.0.weight f4 [10, 10]
0	0xbed278a1	-0.41107658
1	0xbef3c367	-0.47610018
2	0xbe8a5e68	-0.2702515
3	0x3c83ee4a	0.016104836
4	0xbe43d22c	-0.19123143
5	0x3e074cc8	0.13212883
6	0x3dabea24	0.08394268
7	0x3dc6935f	0.096960776
8	0xbdb5dd27	-0.08880072
9	0x3d442ea0	0.047896028
10	0x3f587bda	0.8456398
11	0x3e095502	0.13411334
12	0x3d5d1bba	0.05398152
13	0xbf09a961	-0.53774077
14	0xbe85c7c1	-0.26128963
15	0xbf01bcfb	-0.50678986
16	0xbf21ff29	-0.6327997
17	0x3e1c1ca8	0.15245306
18	0x3f814c48	1.0101404
19	0x3bca2d40	0.006169945
20	0x3f520a12	0.82046616
21	0x3f45c540	0.77254105
22	0x3f041e70	0.51608944
23	0x3e16c7c0	0.14724636
24	0x3dda3fd0	0.106567025
25	0xbf50f210	-0.8161936
26	0xbf51ee67	-0.820044
27	0xbc9ab7e9	-0.018886523
28	0x3f80d84f	1.0066012
29	0xbe2c323d	-0.1681604
30	0x3ee2973a	0.44256002
31	0x3ee20852	0.44146973
32	0x3e9e1ca7	0.30881235
33	0xbd78c12c	-0.060731098
34	0x3e85fd5f	0.2616987
35	0xbe9e10df	-0.30872247
36	0x3e2700b4	0.16308862
37	0xbd3a18af	-0.045433696
38	0x3f472f39	0.7780643
39	0x3ddad1d0	0.1068455
40	0xbf12c9c5	-0.57339126
41	0xbe89c462	-0.2690764
42	0x3e8c6673	0.27421913
43	0xbd1a8373	-0.037723016
44	0x3e8081cf	0.25099036
45	0xbf0da455	-0.55328876
46	0xbf133bfe	-0.57513416
47	0xbedae0de	-0.42749685
48	0xbd1fc508	-0.039006263
49	0xbe7b92ae	-0.24567673
50	0xbdeb3c93	-0.11486163
51	0x3f11f114	0.5700848
52	0x3e3fc254	0.18726474
53	0x3ee51185	0.4473993
54	0xbe2d2554	-0.16908771
55	0x3f558935	0.83412486
56	0x3f454320	0.7705555
57	0x3edd84ce	0.43265384
58	0xbf11013a	-0.56642497
59	0xbe4b9997	-0.19882809
60	0xbe1a823f	-0.15088747
61	0x3f1d0e12	0.61349595
62	0xbd9d62ff	-0.07684898
63	0x3f407645	0.75180465
64	0xbdff8a78	-0.12477583
65	0x3f499524	0.78743196
66	0x3f24093b	0.64076585
67	0xbe275f27	-0.16344891
68	0xbf1134f5	-0.5672143
69	0xbea1978f	-0.31560943
70	0x3f7566d5	0.95860034
71	0x3dc574f0	0.09641445
72	0x3f0a1458	0.5393729
73	0xbe84cb80	-0.25936508
74	0x3dbe16d0	0.09281695
75	0xbf44d9d6	-0.7689489
76	0xbf0d5b72	-0.5521766
77	0xbd9c6a15	-0.07637421
78	0x3f6575e7	0.8963303
79	0xbe09d2ae	-0.13459274
80	0xbf2c1415	-0.6721814
81	0x3f3da289	0.74076134
82	0xbe907712	-0.28215843
83	0x3f703e45	0.93845016
84	0x3c57a620	0.013162166
85	0x3f76c988	0.9640126
86	0x3f1ec84f	0.62024397
87	0x3ec41d84	0.3830377
88	0xbed89200	-0.4229889
89	0xbdb4acc6	-0.088220164
90	0xbf706cb6	-0.9391588
91	0x3ebe21a3	0.37135038
92	0xbe30dbf0	-0.172714
93	0x3f5814b4	0.8440659
94	0x3e4d57ae	0.20052978
95	0x3f8d6a06	1.1047981
96	0x3f8a225a	1.0791733
97	0x3d772595	0.060338575
98	0xbf8770ff	-1.0581359
99	0x3e93de7f	0.2888069

hidden_layers.1.0.bias f4 [10]
0	0xbe1c8126	-0.15283641
1	0x3f3cf965	0.73818046
2	0x3f178f02	0.5920259
3	0x3ecdb2b9	0.40175417
4	0xbe9278f8	-0.28607917
5	0x3f4e2ed7	0.8054022
6	0xbc913ee1	-0.017730178
7	0x3edfb93e	0.43696016
8	0xbe09eb29	-0.13468613
9	0x3f2445cb	0.64168996

fc2.weight f4 [1, 10]
0	0x3e8f86b4	0.28032458
1	0x3f3ccb35	0.7374757
2	0x3f6f1931	0.93397814
3	0x3e9d0b56	0.3067271
4	0xbe82ab5a	-0.25521356
5	0xbf4d86c0	-0.8028374
6	0xbf242973	-0.64125746
7	0x3f6848fb	0.9073636
8	0xbf2efc07	-0.68353313
9	0xbf7d75b3	-0.9900772
