models/zoos/zoo_big/model_135_254.pth (torch, 4488 bytes, 7 tensors)

fc1.0.weight f4 [10, 2]
0	0xbe8d3f78	-0.27587485
1	0xbdeed4d2	-0.11661686
2	0x3f21ffb2	0.63280785
3	0x3fa3bc2b	1.2791799
4	0xbc99a8db	-0.018757274
5	0xbee3664a	-0.44413978
6	0x3fad57a5	1.3542372
7	0x3f7b6aec	0.98210025
8	0xbfbdba2c	-1.482244
9	0xbf8582d5	-1.0430552
10	0xbd26c8d9	-0.040718887
11	0x3eda757d	0.4266776
12	0x3f832359	1.0245162
13	0x4006f696	2.1088004
14	0x3f3a5cd6	0.72797906
15	0xbf1664e5	-0.587477
16	0x3ec0f7fb	0.37689194
17	0xbf10993f	-0.56483835
18	0x3e6b1e52	0.22960785
19	0xbead4790	-0.3384366

fc1.0.bias f4 [10]
0	0x3f38365b	0.7195794
1	0xbf84c670	-1.0373058
2	0x3f5c7343	0.86113375
3	0xbf4aea02	-0.7926332
4	0xbf4a0342	-0.7891122
5	0x3ebe7b3e	0.372034
6	0x3f40601e	0.75146663
7	0xbf20d19a	-0.62819827
8	0x3f9fe312	1.2491171
9	0x3f7ffb0a	0.9999243

hidden_layers.0.0.weight f4 [10, 10]
0	0xbead2adb	-0.3382176
1	0xbf7074f6	-0.9392847
2	0xbf34e2fa	-0.7065884
3	0xbf370d96	-0.71505105
4	0x3eb9a640	0.3625965
5	0x3e96cb18	0.29451823
6	0x3f08a19e	0.5337161
7	0xbf4cb906	-0.79969823
8	0xbecdaa00	-0.40168762
9	0xbee90a31	-0.45515588
10	0xbebff02e	-0.3748793
11	0xbe7407c0	-0.23831081
12	0xbef74e9b	-0.4830216
13	0xbeb26849	-0.34845188
14	0xbe8f3385	-0.27968994
15	0xbe809467	-0.25113222
16	0xbdf897ca	-0.121383265
17	0xbe153aff	-0.14573286
18	0xbeb68532	-0.35648495
19	0xbe30605b	-0.17224257
20	0xbe737115	-0.23773606
21	0xbe5bf1a1	-0.21478893
22	0xbe0dde2f	-0.13854288
23	0xbf26e722	-0.6519643
24	0xbea56d00	-0.32309723
25	0xbd38b693	-0.04509599
26	0x3e1e3b42	0.15452293
27	0xbc9963f3	-0.018724417
28	0xbe015bcb	-0.12632672
29	0xbe9d81e7	-0.3076317
30	0x3ece2ddc	0.40269363
31	0x3fd4be41	1.6620561
32	0x3e951486	0.2911722
33	0x3fc91888	1.5710611
34	0xbfb4790c	-1.409944
35	0x3f4c27ca	0.79748213
36	0xbf9baa1a	-1.2161286
37	0x3f427cfd	0.75971967
38	0x3f05d468	0.5227723
39	0x3ee2613d	0.44214812
40	0x3eb6ef27	0.35729334
41	0x3fa11913	1.2585777
42	0x3f22d3e4	0.6360457
43	0x3f7f5cda	0.99751055
44	0xbfb7dbe3	-1.4363979
45	0x3ec5a4df	0.3860235
46	0xbf968540	-1.1759415
47	0x3f4b85ab	0.79500836
48	0x3f384469	0.71979386
49	0x3f44dfee	0.7690419
50	0x3da1269a	0.07868691
51	0xbfb057a6	-1.3776748
52	0x3ee14da0	0.44004536
53	0xbf437509	-0.76350456
54	0x3fdbd611	1.7174703
55	0x3e55258b	0.20815103
56	0x3fe30117	1.7734708
57	0xbe3f5859	-0.18686046
58	0xbc8a91d9	-0.016915249
59	0x3e98811b	0.29786
60	0x3e46dd61	0.19420387
61	0x3f890fdd	1.0707966
62	0x3d8d516d	0.06900296
63	0x3f968378	1.1758871
64	0xbf62d93d	-0.8861273
65	0x3ef5bf5a	0.47997552
66	0xbf83f82d	-1.0310112
67	0x3f12fbae	0.5741528
68	0x3f021171	0.50807863
69	0x3ee04b56	0.43807477
70	0x3e1f817e	0.15576741
71	0xbf7611c0	-0.96120834
72	0xbdcd1185	-0.10013107
73	0xbf79f97a	-0.97646296
74	0x3fc93d61	1.5721856
75	0x3e38baf1	0.18040062
76	0x3fc55138	1.5415411
77	0x3c96d641	0.018412711
78	0x3f360ff1	0.71118075
79	0x3f0c74c8	0.54865694
80	0xbefda5a2	-0.4954043
81	0x3fa58e6a	1.2934086
82	0xbf216a38	-0.630527
83	0x3fdb8a79	1.7151634
84	0xbe23f72b	-0.16012256
85	0xbf418cc8	-0.7560544
86	0x3f0a22ca	0.53959334
87	0x3f155d49	0.58345467
88	0xbcf70b1f	-0.03015667
89	0x3d7ca0b5	0.0616767
90	0x3d939c71	0.07207573
91	0x3f3dbde1	0.7411786
92	0x3f0379ef	0.5135793
93	0x3efc84d2	0.49320084
94	0xbee5998a	-0.44843704
95	0xbe00f3bd	-0.12592979
96	0xbf3c7a5e	-0.7362422
97	0x3e912a5f	0.2835264
98	0x3f05b00f	0.5222177
99	0x3eb7bb4a	0.35885078

hidden_layers.0.0.bias f4 [10]
0	0x3d356411	0.044284884
1	0xbe8dce62	-0.2769652
2	0xbe8e3b4a	-0.2777961
3	0x3f12d940	0.5736275
4	0x3f5c81cd	0.8613556
5	0x3ee1e73a	0.44121724
6	0x3ee64976	0.4497792
7	0x3f283a7e	0.6571425
8	0xbe0cc989	-0.13748755
9	0xbe310a50	-0.1728909

hidden_layers.1.0.weight f4 [10, 10]
0	0xbd2c19d7	-0.04201683
1	0xbe1c178c	-0.15243357
2	0xbed1563e	-0.4088611
3	0x3f881803	1.0632328
4	0x3f12d7d8	0.573606
5	0x3de85c73	0.11345758
6	0x3eddddd5	0.43333307
7	0xbe83c115	-0.25733247
8	0x3fe0e6c8	1.7570429
9	0xbe64467c	-0.22292513
10	0xbe6854d3	-0.22688608
11	0xbd349ab8	-0.044092864
12	0x3e8347f9	0.25640848
13	0xbddde4ad	-0.10834632
14	0xbed1b64e	-0.409594
15	0xbe12812e	-0.1430709
16	0x3e705586	0.23470125
17	0xbf0cf9ff	-0.55068964
18	0xbe326ca4	-0.17424256
19	0xbeb45e32	-0.35228115
20	0x3eca18e3	0.39472112
21	0x3da82800	0.082107544
22	0xbbc6af7c	-0.0060634
23	0xbe84ce74	-0.2593876
24	0x3da38fcc	0.079864115
25	0x3f0ccd4c	0.5500076
26	0x3dae9619	0.085247226
27	0x3f26ab2c	0.6510494
28	0xbf2270e3	-0.634535
29	0x3f036a96	0.5133451
30	0xbe56c29e	-0.20972678
31	0x3e3553e8	0.17707789
32	0x3cce00b0	0.025146812
33	0x3dcaa39c	0.09894487
34	0xbe6570b3	-0.22406273
35	0xbe4183b0	-0.18897891
36	0x3dee1570	0.11625183
37	0x3dc07790	0.09397805
38	0x3952c800	0.00020101666
39	0xbd3548e0	-0.044258952
40	0x3f137bc7	0.57610744
41	0xbca732a0	-0.020409882
42	0x3e3bc761	0.18337776
43	0xbf49840d	-0.7871712
44	0xbf629a60	-0.8851681
45	0x3e7168aa	0.23575082
46	0xbea5d28a	-0.3238719
47	0xbd47bf68	-0.048766524
48	0xbcba8fb8	-0.022773609
49	0xbf04a136	-0.5180849
50	0xbe893948	-0.26801515
51	0xbe3a89cb	-0.18216626
52	0xbf17785e	-0.5916804
53	0xbf0fd550	-0.56184864
54	0xbe958b57	-0.2920787
55	0x3d9cfb56	0.07665126
56	0xbdb37848	-0.08763176
57	0xbf1523a0	-0.58257484
58	0x3c76124d	0.015019012
59	0xbdbc9b58	-0.09209317
60	0x3ebbc549	0.36673954
61	0xbf187ded	-0.5956715
62	0xbf017a5f	-0.5057735
63	0xbf10e695	-0.5660184
64	0xbf168d5b	-0.5880944
65	0x3f82beb7	1.0214452
66	0xbe22fcc6	-0.15916738
67	0x3f4f26e8	0.8091874
68	0xbf88e62a	-1.069524
69	0x3d2ea2bb	0.04263566
70	0x3cbb4fff	0.022865294
71	0x3e735dc2	0.23766235
72	0x3ef7d1be	0.48402208
73	0x3f6b9e78	0.9203868
74	0x3f843402	1.0328372
75	0xbf2c52f3	-0.6731407
76	0x3f2868f0	0.6578512
77	0x3e18ccba	0.14921847
78	0x3f3b31a5	0.73122627
79	0x3f0a3a2c	0.53995013
80	0x3da3271a	0.079664424
81	0x3d9715f3	0.07377233
82	0x3e106cb4	0.14103967
83	0x3f84e9c5	1.0383841
84	0x3f8314c6	1.0240715
85	0xbf5ae193	-0.8550045
86	0x3f164b19	0.5870834
87	0xbe7f0445	-0.24903972
88	0x3f60cd2f	0.87813085
89	0x3e9a936e	0.30190605
90	0x3e7fd351	0.24982955
91	0xbce809d9	-0.028325008
92	0xbe8c9e13	-0.2746435
93	0xbed1b2e3	-0.40956792
94	0xbf120af5	-0.5704797
95	0x3f3d5d3c	0.7397039
96	0xbeb6b562	-0.3568526
97	0x3f7d72c8	0.9900327
98	0xbf4d21ef	-0.80129904
99	0x3e0d3e9e	0.13793418

hidden_layers.1.0.bias f4 [10]
0	0x3d12e88e	0.035866313
1	0xbeeb764c	-0.4598869
2	0x3d55396a	0.052056707
3	0xbe4cebbc	-0.200118
4	0xbe88869b	-0.26665196
5	0xbe86d031	-0.26330712
6	0x3efd174c	0.49431837
7	0x3e56fedb	0.20995657
8	0x3dcf665e	0.10126947
9	0x3f466265	0.7749389

fc2.weight f4 [1, 10]
0	0xbfc68707	-1.5509957
1	0xbda30942	-0.0796075
2	0x3ef65ecc	0.481192
3	0x3e5a2416	0.21302828
4	0x3e04d1ba	0.1297063
5	0xbe5472ae	-0.20746872
6	0x3f2671d9	0.6501747
7	0xbf52a254	-0.82278943
8	0xbf656719	-0.8961044
9	0x3f60523e	0.8762549
