models/zoos/zoo_small/model_45_1395.pth (torch, 2368 bytes, 3 tensors)

fc1.0.weight f4 [8, 2]
000000 8b b1 4f c0 e3 a3 60 40 ef 43 3c 40 16 94 77 c0
       -3.2452114 3.5100029 2.9416463 -3.8684134
000010 75 50 ac 3f ff dc b0 3f 56 38 76 c0 4f 5c fd 3f
       1.3462054 1.3817443 -3.8471885 1.9793795
000020 57 93 e0 3f 64 bc 9a 3d 85 51 9f c0 00 fc 15 40
       1.7544965 0.07555464 -4.978701 2.3435059
000030 6d d7 1b 3f b3 70 2c 3f 1b a8 11 be 03 0d 97 3c
       0.6087559 0.67359465 -0.14224283 0.018438822

fc1.0.bias f4 [8]
000000 23 89 20 c0 39 7f 1f c0 42 7f 8d bf 9c b4 1f c0
       -2.5083702 -2.49214 -1.1054461 -2.4953985
000010 3e d0 94 3f 80 27 fc 3f f3 ba 37 40 6b c1 92 bf
       1.162605 1.9699554 2.8707855 -1.1465276

fc2.weight f4 [1, 8]
000000 43 fd 7c c0 5e b9 1d 40 af 4a a4 bf be 52 04 c0
       -3.9529579 2.464439 -1.2835292 -2.0675502
000010 56 f0 89 bf 41 4e 23 40 8c cc cb bf c9 d4 5e 3e
       -1.077647 2.5516512 -1.5921798 0.21760859
