models/zoos/zoo_small/model_225_4323.pth (torch, 2376 bytes, 3 tensors)

fc1.0.weight f4 [8, 2]
2.3176372 0.09412689 -0.26221725 0.13438569 -1.6909168 -1.51143 -2.444443 0.60438037
4.7958226 -3.9976475 -2.843245 4.179019 2.2586992 -0.21301308 4.9829116 -2.3727279
00000000: 2b54 1440 99c5 c03d 5741 86be 679c 093e
00000010: f66f d8bf 8a76 c1bf c171 1cc0 acb8 1a3f
00000020: 6177 9940 75d9 7fc0 baf7 35c0 86ba 8540
00000030: 878e 1040 1a20 5abe 0374 9f40 c6da 17c0

fc1.0.bias f4 [8]
1.0156345 -0.6830447 -1.1535892 2.1750386 -2.8842537 -2.8197598 0.8161825 1.769053
00000000: 5000 823f 04dc 2ebf d0a8 93bf d533 0b40
00000010: 9d97 38c0 f276 34c0 56f1 503f 5470 e23f

fc2.weight f4 [1, 8]
0.78230333 -0.046224773 -1.949512 -1.255539 -4.410498 3.2600696 0.7496409 2.1962466
00000000: 0845 483f 3056 3dbd 9c89 f9bf 80b5 a0bf
00000010: cd22 8dc0 fba4 5040 77e8 3f3f 4e8f 0c40
