models/zoos/zoo_small/model_135_2411.pth (torch, 2376 bytes, 3 tensors)

fc1.0.weight f4 [8, 2]
00000000: cdd6 1340 bf06 5440 2b01 6f3d 257e 043f
00000010: 72a6 f3be 8f4d 9dc0 6d6b 1ac0 03dc 29c0
00000020: 47e2 c33f d1d6 a9bf 2c4a 963f 5712 74bf
00000030: 7f50 443e ec3d 45be 5614 0540 6966 e9bf
2.3099854 3.3129117 0.058350723 0.5175498 -0.47587925 -4.9157176 -2.4128067 -2.6540534
1.5303429 -1.3268682 1.1741385 -0.95340484 0.19171332 -0.19261903 2.0793662 -1.8234378

fc1.0.bias f4 [8]
00000000: 2a4f 30c0 37aa 16bf c98e 1a40 bde6 d9bf
00000010: 9c40 a5bf b7b0 79bf 73c3 ffbe ae1d dfbf
-2.7548318 -0.5885348 2.414965 -1.7023541 -1.2910342 -0.9753527 -0.49953803 -1.7430933

fc2.weight f4 [1, 8]
00000000: 07c9 fcbf d014 20be aad8 80bf 597e 1040
00000010: 78bd 89bf 75c0 a5bf fde8 bb3e 10e3 d2bf
-1.9748849 -0.1563294 -1.0066121 2.2577116 -1.0760946 -1.2949358 0.36701193 -1.6475544
