models/zoos/zoo_small/model_270_3273.pth (torch, 2376 bytes, 3 tensors)

fc1.0.weight f4 [8, 2]
000000 52 28 14 3f da 68 4e be 5f fa 76 be 2c 5d 9a c0
       0.57874024 -0.20157185 -0.24118946 -4.8238735
000010 60 d2 ea bf 84 7e 53 be ca dd ce 3f 6f 4b e6 bf
       -1.8345451 -0.2065373 1.6161435 -1.799177
000020 7e 81 bd be 74 92 a4 40 9d 59 9c 3f 95 0c 5d 40
       -0.37012857 5.1428776 1.2214848 3.453893
000030 75 70 8b bf d7 ee 0d be 05 e7 a2 bf 6f 1b 60 40
       -1.0893694 -0.13860641 -1.2726752 3.5016744

fc1.0.bias f4 [8]
000000 43 6d 8a bf 8d 1d 22 c0 be 4d 99 bf 1f 97 17 40
       -1.0814594 -2.5330536 -1.197685 2.3685987
000010 aa e2 26 c0 b6 33 0b c0 80 64 31 bf d4 a9 c0 3f
       -2.6075845 -2.1750312 -0.69293976 1.5051827

fc2.weight f4 [1, 8]
000000 2c 6d bc be d3 5b 41 c0 fb ce f8 bf 61 6d e5 3f
       -0.36802042 -3.0212295 -1.9438165 1.7924005
000010 36 aa 80 40 ac 2f 1a 40 52 6d 47 bf 58 44 57 c0
       4.0207777 2.4091597 -0.77901185 -3.3635464
