models/zoos/zoo_small/model_90_5484.pth (torch, 2368 bytes, 3 tensors)

fc1.0.weight f4 [8, 2]
00000000: 08bf a5bf aade 8840 2521 8cbf accc 423f
00000010: 36be 623f c1f6 2740 bbd9 7d3f c76d 48bf
00000020: 2e35 dd3f c55d 353f 8be1 a8bf ed44 97c0
00000030: 7448 52bf 1fa8 323f cd92 a2bf b275 9e40
-1.2948923 4.2771807 -1.0947615 0.76093554 0.8857149 2.6244357 0.99160355 -0.78292507
1.7281854 0.70846206 -1.319383 -4.727164 -0.82141805 0.6978778 -1.270105 4.951867

fc1.0.bias f4 [8]
00000000: 2928 ed3f c9d2 6f3f 3afe cbbf ab29 0440
00000010: 36e2 9cbf cc66 42c0 e46c 173f 466b 31c0
1.8527881 0.9368101 -1.5936959 2.0650432 -1.2256534 -3.0375242 0.5915053 -2.7721725

fc2.weight f4 [1, 8]
00000000: 701f 3c40 b298 4f3f d131 54c0 a735 04c0
00000010: 9d5d c2bf 1a73 7340 9137 f63e e067 8bc0
2.9394188 0.8109237 -3.3155406 -2.0657747 -1.5184819 3.8039002 0.4808927 -4.35643
