models/zoos/zoo_small/model_0_989.pth (torch, 2352 bytes, 3 tensors)

fc1.0.weight f4 [8, 2]
00000000: dfec 9fc0 3fdf 6a3f 23d3 d03d c5ab 87be
00000010: 20b3 0f3e e826 1a3e 436d 4c3e b636 0f40
00000020: a3f5 9840 a30f e0be 1793 4840 23cc bb3f
00000030: 38b3 4fc0 b7bb 85bf 1cea 553e 5646 18c0
-4.997665 0.91746897 0.10196521 -0.26498237 0.14033175 0.15053904 0.19963555 2.2377143
4.779985 -0.4376193 3.1339777 1.4671673 -3.2453136 -1.0447911 0.20890087 -2.379293

fc1.0.bias f4 [8]
00000000: a89b 44c0 4da6 55bf 9e19 e0be f096 89bf
00000010: bdfb 2bc0 08fe f13f d850 d93f c7a1 a5bf
-3.0720005 -0.8345688 -0.43769544 -1.0749187 -2.68724 1.8905649 1.6977797 -1.2939996

fc2.weight f4 [1, 8]
00000000: fe4f 72c0 47c1 2cbe fafd 6c3e 2b89 8cbf
00000010: b926 8840 b9b6 0bc0 efa0 c93f d4c0 d93f
-3.7861323 -0.16870604 0.2314376 -1.097936 4.254727 -2.1830275 1.5752238 1.7011971
