models/zoos/zoo_small/model_45_3655.pth (torch, 2368 bytes, 3 tensors)

fc1.0.weight f4 [8, 2]
00000000: 80ec 8a40 47fa 84c0 ca2d 9a3f 4759 8f3f
00000010: 75e4 b0c0 269f ab3f 215a a43d 2f98 95be
00000020: edc1 663e e228 e0bd 2877 88c0 6e8a 6f40
00000030: 5908 5abf 3b6a c8bf e6c7 5740 4db9 9fbf
4.3413696 -4.1555514 1.2045224 1.119912 -5.527888 1.3407943 0.08025003 -0.2921767
0.22534914 -0.10945298 -4.2645454 3.742824 -0.8516899 -1.5657419 3.3715758 -1.2478424

fc1.0.bias f4 [8]
00000000: 6a22 23c0 b135 5fbf 6636 0640 19bb 27bf
00000010: 8608 29bf 19b4 31c0 7e2b b9bf 7718 973f
-2.5489755 -0.871913 2.0970702 -0.65519863 -0.6602863 -2.7766173 -1.4466398 1.1804341

fc2.weight f4 [1, 8]
00000000: e3ff 3d40 199b 7fbf 7087 ea3f e38c 13bc
00000010: 8598 4abe ee35 5dc0 a81f d63f e702 02c0
2.968743 -0.99846035 1.8322582 -0.009005758 -0.19784744 -3.4564166 1.6728411 -2.0314271
