models/zoos/zoo_small/model_315_1944.pth (torch, 2376 bytes, 3 tensors)

fc1.0.weight f4 [8, 2]
000000 3a d5 87 bf f8 05 60 be a9 7f e1 3f 75 4a 59 3f
       -1.0611947 -0.21877277 1.7617084 0.8487924
000010 51 0f 00 40 1d f6 cd bf 78 3a 2d 3e 58 b5 9b 3e
       2.0009348 -1.6090733 0.16916835 0.30411792
000020 64 7e 35 c0 72 85 88 bf 82 d6 88 40 b1 3f af 40
       -2.8358393 -1.0665724 4.276185 5.476525
000030 7a b0 59 40 69 a8 af 40 61 e2 6e bf ad 2c 45 be
       3.4013963 5.489308 -0.93314177 -0.19255324

fc1.0.bias f4 [8]
000000 fa 48 c2 3f 6a ba 7f 40 f1 78 b2 bf 55 f6 5d bf
       1.5178521 3.9957528 -1.3943158 -0.86704
000010 50 aa ee bf 7d 3b 43 c0 1a ec 3b 40 03 21 aa 3f
       -1.8645725 -3.0505059 2.9362855 1.3291324

fc2.weight f4 [1, 8]
000000 77 21 2a bf e4 7c 0c 40 02 64 db 3f 8d 75 e9 bd
       -0.66457313 2.1951227 1.7139895 -0.11399374
000010 34 d5 15 c0 f4 bb 68 40 9f b1 42 c0 01 84 31 bf
       -2.341138 3.6364717 -3.0420911 -0.69342047
