models/zoos/zoo_small/model_270_7758.pth (torch, 2376 bytes, 3 tensors)

fc1.0.weight f4 [8, 2]
0.7419997 3.1489494 -2.4292314 -0.052469473 0.26364604 0.09441837 0.04021615 -4.8601613
2.0057693 0.57547975 0.8275961 -4.826494 0.35937446 0.7954523 -0.8658882 -1.7166734
00000000: b1f3 3d3f 6388 4940 8778 1bc0 3bea 56bd
00000010: 9dfc 863e 6b5e c13d b1b9 243d 7186 9bc0
00000020: 865e 0040 a452 133f 57dd 533f a472 9ac0
00000030: eeff b73e c3a2 4b3f d9aa 5dbf f4bb dbbf

fc1.0.bias f4 [8]
-1.8577702 -1.3346988 -0.5758663 -2.5489783 -1.1850362 2.1030676 1.1826515 3.2646685
00000000: 6acb edbf 69d7 aabf f96b 13bf 7622 23c0
00000010: 44af 97bf a998 0640 2061 973f 54f0 5040

fc2.weight f4 [1, 8]
1.7751129 -1.6832511 0.0513659 -4.859977 1.6636924 3.4724693 0.41604102 -2.3886354
00000000: e636 e33f c674 d7bf 0d65 523d ee84 9bc0
00000010: dff3 d43f f03c 5e40 5403 d53e 67df 18c0
